module attributes {tf.versions = {bad_consumers = [], min_consumer = 12 : i32, producer = 1286 : i32}, tf_saved_model.semantics} {
  "tf_saved_model.global_tensor"() <{is_mutable, sym_name = "__sm_node39__layer-3.kernel", type = tensor<384x256xf32>, value = dense<"…"> : tensor<384x256xf32>}> {tf_saved_model.exported_names = []} : () -> ()
  "tf_saved_model.global_tensor"() <{is_mutable, sym_name = "__sm_node40__layer-3.bias", type = tensor<256xf32>, value = dense<"…"> : tensor<256xf32>}> {tf_saved_model.exported_names = []} : () -> ()
  "tf_saved_model.global_tensor"() <{is_mutable, sym_name = "__sm_node55__layer-5.kernel", type = tensor<256x256xf32>, value = dense<"…"> : tensor<256x256xf32>}> {tf_saved_model.exported_names = []} : () -> ()
  "tf_saved_model.global_tensor"() <{is_mutable, sym_name = "__sm_node56__layer-5.bias", type = tensor<256xf32>, value = dense<"…"> : tensor<256xf32>}> {tf_saved_model.exported_names = []} : () -> ()
  "tf_saved_model.global_tensor"() <{is_mutable, sym_name = "__sm_node71__layer-7.kernel", type = tensor<256x256xf32>, value = dense<"…"> : tensor<256x256xf32>}> {tf_saved_model.exported_names = []} : () -> ()
  "tf_saved_model.global_tensor"() <{is_mutable, sym_name = "__sm_node72__layer-7.bias", type = tensor<256xf32>, value = dense<"…"> : tensor<256xf32>}> {tf_saved_model.exported_names = []} : () -> ()
  "tf_saved_model.global_tensor"() <{is_mutable, sym_name = "__sm_node153__keras_api.metrics.0.total", type = tensor<f32>, value = dense<0.000000e+00> : tensor<f32>}> {tf_saved_model.exported_names = []} : () -> ()
  "tf_saved_model.global_tensor"() <{is_mutable, sym_name = "__sm_node154__keras_api.metrics.0.count", type = tensor<f32>, value = dense<0.000000e+00> : tensor<f32>}> {tf_saved_model.exported_names = []} : () -> ()
  func.func private @__inference__wrapped_model_40688010(%arg0: tensor<?x16x24xf32> {tf._user_specified_name = "args_0"}, %arg1: tensor<!tf_type.resource>, %arg2: tensor<!tf_type.resource>, %arg3: tensor<!tf_type.resource>, %arg4: tensor<!tf_type.resource>, %arg5: tensor<!tf_type.resource>, %arg6: tensor<!tf_type.resource>) -> tensor<?x256xf32> attributes {tf._construction_context = "kEagerRuntime", tf._input_shapes = [#tf_type.shape<?x16x24>, #tf_type.shape<>, #tf_type.shape<>, #tf_type.shape<>, #tf_type.shape<>, #tf_type.shape<>, #tf_type.shape<>], tf.signature.is_stateful} {
    %0 = tf_executor.graph {
      %outputs, %control = tf_executor.island wraps "tf.Identity"(%arg0) {device = ""} : (tensor<?x16x24xf32>) -> tensor<?x16x24xf32>
      %outputs_0, %control_1 = tf_executor.island wraps "tf.Const"() <{value = dense<1.41421354> : tensor<f32>}> {device = ""} : () -> tensor<f32>
      %outputs_2, %control_3 = tf_executor.island wraps "tf.Const"() <{value = dense<1.000000e+00> : tensor<f32>}> {device = ""} : () -> tensor<f32>
      %outputs_4, %control_5 = tf_executor.island wraps "tf.Const"() <{value = dense<5.000000e-01> : tensor<f32>}> {device = ""} : () -> tensor<f32>
      %outputs_6, %control_7 = tf_executor.island wraps "tf.Const"() <{value = dense<1.41421354> : tensor<f32>}> {device = ""} : () -> tensor<f32>
      %outputs_8, %control_9 = tf_executor.island wraps "tf.Const"() <{value = dense<1.000000e+00> : tensor<f32>}> {device = ""} : () -> tensor<f32>
      %outputs_10, %control_11 = tf_executor.island wraps "tf.Const"() <{value = dense<5.000000e-01> : tensor<f32>}> {device = ""} : () -> tensor<f32>
      %outputs_12, %control_13 = tf_executor.island wraps "tf.Const"() <{value = dense<[-1, 384]> : tensor<2xi32>}> {device = ""} : () -> tensor<2xi32>
      %outputs_14, %control_15 = tf_executor.island wraps "tf.Reshape"(%outputs, %outputs_12) {device = ""} : (tensor<?x16x24xf32>, tensor<2xi32>) -> tensor<?x384xf32>
      %outputs_16, %control_17 = tf_executor.island wraps "tf.ReadVariableOp"(%arg2) {device = ""} : (tensor<!tf_type.resource>) -> tensor<256xf32>
      %outputs_18, %control_19 = tf_executor.island wraps "tf.ReadVariableOp"(%arg1) {device = ""} : (tensor<!tf_type.resource>) -> tensor<384x256xf32>
      %outputs_20, %control_21 = tf_executor.island wraps "tf.MatMul"(%outputs_14, %outputs_18) <{grad_a = false, grad_b = false, transpose_a = false, transpose_b = false}> {device = ""} : (tensor<?x384xf32>, tensor<384x256xf32>) -> tensor<?x256xf32>
      %outputs_22, %control_23 = tf_executor.island wraps "tf.BiasAdd"(%outputs_20, %outputs_16) <{data_format = "NHWC"}> {device = ""} : (tensor<?x256xf32>, tensor<256xf32>) -> tensor<?x256xf32>
      %outputs_24, %control_25 = tf_executor.island wraps "tf.Mul"(%outputs_4, %outputs_22) {device = ""} : (tensor<f32>, tensor<?x256xf32>) -> tensor<?x256xf32>
      %outputs_26, %control_27 = tf_executor.island wraps "tf.RealDiv"(%outputs_22, %outputs_0) {device = ""} : (tensor<?x256xf32>, tensor<f32>) -> tensor<?x256xf32>
      %outputs_28, %control_29 = tf_executor.island wraps "tf.Erf"(%outputs_26) {device = ""} : (tensor<?x256xf32>) -> tensor<?x256xf32>
      %outputs_30, %control_31 = tf_executor.island wraps "tf.AddV2"(%outputs_2, %outputs_28) {device = ""} : (tensor<f32>, tensor<?x256xf32>) -> tensor<?x256xf32>
      %outputs_32, %control_33 = tf_executor.island wraps "tf.Mul"(%outputs_24, %outputs_30) {device = ""} : (tensor<?x256xf32>, tensor<?x256xf32>) -> tensor<?x256xf32>
      %outputs_34, %control_35 = tf_executor.island wraps "tf.ReadVariableOp"(%arg4) {device = ""} : (tensor<!tf_type.resource>) -> tensor<256xf32>
      %outputs_36, %control_37 = tf_executor.island wraps "tf.ReadVariableOp"(%arg3) {device = ""} : (tensor<!tf_type.resource>) -> tensor<256x256xf32>
      %outputs_38, %control_39 = tf_executor.island wraps "tf.MatMul"(%outputs_32, %outputs_36) <{grad_a = false, grad_b = false, transpose_a = false, transpose_b = false}> {device = ""} : (tensor<?x256xf32>, tensor<256x256xf32>) -> tensor<?x256xf32>
      %outputs_40, %control_41 = tf_executor.island wraps "tf.BiasAdd"(%outputs_38, %outputs_34) <{data_format = "NHWC"}> {device = ""} : (tensor<?x256xf32>, tensor<256xf32>) -> tensor<?x256xf32>
      %outputs_42, %control_43 = tf_executor.island wraps "tf.Mul"(%outputs_10, %outputs_40) {device = ""} : (tensor<f32>, tensor<?x256xf32>) -> tensor<?x256xf32>
      %outputs_44, %control_45 = tf_executor.island wraps "tf.RealDiv"(%outputs_40, %outputs_6) {device = ""} : (tensor<?x256xf32>, tensor<f32>) -> tensor<?x256xf32>
      %outputs_46, %control_47 = tf_executor.island wraps "tf.Erf"(%outputs_44) {device = ""} : (tensor<?x256xf32>) -> tensor<?x256xf32>
      %outputs_48, %control_49 = tf_executor.island wraps "tf.AddV2"(%outputs_8, %outputs_46) {device = ""} : (tensor<f32>, tensor<?x256xf32>) -> tensor<?x256xf32>
      %outputs_50, %control_51 = tf_executor.island wraps "tf.Mul"(%outputs_42, %outputs_48) {device = ""} : (tensor<?x256xf32>, tensor<?x256xf32>) -> tensor<?x256xf32>
      %outputs_52, %control_53 = tf_executor.island wraps "tf.ReadVariableOp"(%arg6) {device = ""} : (tensor<!tf_type.resource>) -> tensor<256xf32>
      %outputs_54, %control_55 = tf_executor.island wraps "tf.ReadVariableOp"(%arg5) {device = ""} : (tensor<!tf_type.resource>) -> tensor<256x256xf32>
      %control_56 = tf_executor.island(%control_19, %control_17, %control_37, %control_35, %control_55, %control_53) wraps "tf.NoOp"() {_acd_function_control_output = true, device = ""} : () -> ()
      %outputs_57, %control_58 = tf_executor.island wraps "tf.MatMul"(%outputs_50, %outputs_54) <{grad_a = false, grad_b = false, transpose_a = false, transpose_b = false}> {device = ""} : (tensor<?x256xf32>, tensor<256x256xf32>) -> tensor<?x256xf32>
      %outputs_59, %control_60 = tf_executor.island wraps "tf.BiasAdd"(%outputs_57, %outputs_52) <{data_format = "NHWC"}> {device = ""} : (tensor<?x256xf32>, tensor<256xf32>) -> tensor<?x256xf32>
      %outputs_61, %control_62 = tf_executor.island wraps "tf.Tanh"(%outputs_59) {device = ""} : (tensor<?x256xf32>) -> tensor<?x256xf32>
      %outputs_63, %control_64 = tf_executor.island(%control_56) wraps "tf.Identity"(%outputs_61) {device = ""} : (tensor<?x256xf32>) -> tensor<?x256xf32>
      tf_executor.fetch %outputs_63, %control_19, %control_17, %control_37, %control_35, %control_55, %control_53 : tensor<?x256xf32>, !tf_executor.control, !tf_executor.control, !tf_executor.control, !tf_executor.control, !tf_executor.control, !tf_executor.control
    }
    return %0 : tensor<?x256xf32>
  }
  func.func private @__inference_activation_2_layer_call_and_return_conditional_losses_40688840(%arg0: tensor<?x256xf32> {tf._user_specified_name = "inputs"}) -> tensor<?x256xf32> attributes {tf._construction_context = "kEagerRuntime", tf._input_shapes = [#tf_type.shape<?x256>]} {
    %0 = tf_executor.graph {
      %outputs, %control = tf_executor.island wraps "tf.Const"() <{value = dense<1.41421354> : tensor<f32>}> {device = ""} : () -> tensor<f32>
      %outputs_0, %control_1 = tf_executor.island wraps "tf.Const"() <{value = dense<1.000000e+00> : tensor<f32>}> {device = ""} : () -> tensor<f32>
      %outputs_2, %control_3 = tf_executor.island wraps "tf.Const"() <{value = dense<5.000000e-01> : tensor<f32>}> {device = ""} : () -> tensor<f32>
      %outputs_4, %control_5 = tf_executor.island wraps "tf.Mul"(%outputs_2, %arg0) {device = ""} : (tensor<f32>, tensor<?x256xf32>) -> tensor<?x256xf32>
      %outputs_6, %control_7 = tf_executor.island wraps "tf.RealDiv"(%arg0, %outputs) {device = ""} : (tensor<?x256xf32>, tensor<f32>) -> tensor<?x256xf32>
      %outputs_8, %control_9 = tf_executor.island wraps "tf.Erf"(%outputs_6) {device = ""} : (tensor<?x256xf32>) -> tensor<?x256xf32>
      %outputs_10, %control_11 = tf_executor.island wraps "tf.AddV2"(%outputs_0, %outputs_8) {device = ""} : (tensor<f32>, tensor<?x256xf32>) -> tensor<?x256xf32>
      %outputs_12, %control_13 = tf_executor.island wraps "tf.Mul"(%outputs_4, %outputs_10) {device = ""} : (tensor<?x256xf32>, tensor<?x256xf32>) -> tensor<?x256xf32>
      %outputs_14, %control_15 = tf_executor.island wraps "tf.Identity"(%outputs_12) {device = ""} : (tensor<?x256xf32>) -> tensor<?x256xf32>
      tf_executor.fetch %outputs_14 : tensor<?x256xf32>
    }
    return %0 : tensor<?x256xf32>
  }
  func.func private @__inference_activation_2_layer_call_and_return_conditional_losses_40692880(%arg0: tensor<?x256xf32> {tf._user_specified_name = "inputs"}) -> tensor<?x256xf32> attributes {tf._construction_context = "kEagerRuntime", tf._input_shapes = [#tf_type.shape<?x256>]} {
    %0 = tf_executor.graph {
      %outputs, %control = tf_executor.island wraps "tf.Const"() <{value = dense<1.41421354> : tensor<f32>}> {device = ""} : () -> tensor<f32>
      %outputs_0, %control_1 = tf_executor.island wraps "tf.Const"() <{value = dense<1.000000e+00> : tensor<f32>}> {device = ""} : () -> tensor<f32>
      %outputs_2, %control_3 = tf_executor.island wraps "tf.Const"() <{value = dense<5.000000e-01> : tensor<f32>}> {device = ""} : () -> tensor<f32>
      %outputs_4, %control_5 = tf_executor.island wraps "tf.Mul"(%outputs_2, %arg0) {device = ""} : (tensor<f32>, tensor<?x256xf32>) -> tensor<?x256xf32>
      %outputs_6, %control_7 = tf_executor.island wraps "tf.RealDiv"(%arg0, %outputs) {device = ""} : (tensor<?x256xf32>, tensor<f32>) -> tensor<?x256xf32>
      %outputs_8, %control_9 = tf_executor.island wraps "tf.Erf"(%outputs_6) {device = ""} : (tensor<?x256xf32>) -> tensor<?x256xf32>
      %outputs_10, %control_11 = tf_executor.island wraps "tf.AddV2"(%outputs_0, %outputs_8) {device = ""} : (tensor<f32>, tensor<?x256xf32>) -> tensor<?x256xf32>
      %outputs_12, %control_13 = tf_executor.island wraps "tf.Mul"(%outputs_4, %outputs_10) {device = ""} : (tensor<?x256xf32>, tensor<?x256xf32>) -> tensor<?x256xf32>
      %outputs_14, %control_15 = tf_executor.island wraps "tf.Identity"(%outputs_12) {device = ""} : (tensor<?x256xf32>) -> tensor<?x256xf32>
      tf_executor.fetch %outputs_14 : tensor<?x256xf32>
    }
    return %0 : tensor<?x256xf32>
  }
  func.func private @__inference_activation_2_layer_call_fn_40692760(%arg0: tensor<?x256xf32> {tf._user_specified_name = "inputs"}) -> tensor<?x256xf32> attributes {tf._construction_context = "kEagerRuntime", tf._input_shapes = [#tf_type.shape<?x256>]} {
    %0 = tf_executor.graph {
      %outputs, %control = tf_executor.island wraps "tf.PartitionedCall"(%arg0) <{config = "", config_proto = "\0A\07\0A\03CPU\10\01\0A\07\0A\03GPU\10\012\07 \01*\010J\008\01\82\01\00", executor_type = "", f = @__inference_activation_2_layer_call_and_return_conditional_losses_40688840}> {_collective_manager_ids = [], _read_only_resource_inputs = [], device = ""} : (tensor<?x256xf32>) -> tensor<?x256xf32>
      %outputs_0, %control_1 = tf_executor.island wraps "tf.Identity"(%outputs) {device = ""} : (tensor<?x256xf32>) -> tensor<?x256xf32>
      tf_executor.fetch %outputs_0 : tensor<?x256xf32>
    }
    return %0 : tensor<?x256xf32>
  }
  func.func private @__inference_activation_3_layer_call_and_return_conditional_losses_40689140(%arg0: tensor<?x256xf32> {tf._user_specified_name = "inputs"}) -> tensor<?x256xf32> attributes {tf._construction_context = "kEagerRuntime", tf._input_shapes = [#tf_type.shape<?x256>]} {
    %0 = tf_executor.graph {
      %outputs, %control = tf_executor.island wraps "tf.Const"() <{value = dense<1.41421354> : tensor<f32>}> {device = ""} : () -> tensor<f32>
      %outputs_0, %control_1 = tf_executor.island wraps "tf.Const"() <{value = dense<1.000000e+00> : tensor<f32>}> {device = ""} : () -> tensor<f32>
      %outputs_2, %control_3 = tf_executor.island wraps "tf.Const"() <{value = dense<5.000000e-01> : tensor<f32>}> {device = ""} : () -> tensor<f32>
      %outputs_4, %control_5 = tf_executor.island wraps "tf.Mul"(%outputs_2, %arg0) {device = ""} : (tensor<f32>, tensor<?x256xf32>) -> tensor<?x256xf32>
      %outputs_6, %control_7 = tf_executor.island wraps "tf.RealDiv"(%arg0, %outputs) {device = ""} : (tensor<?x256xf32>, tensor<f32>) -> tensor<?x256xf32>
      %outputs_8, %control_9 = tf_executor.island wraps "tf.Erf"(%outputs_6) {device = ""} : (tensor<?x256xf32>) -> tensor<?x256xf32>
      %outputs_10, %control_11 = tf_executor.island wraps "tf.AddV2"(%outputs_0, %outputs_8) {device = ""} : (tensor<f32>, tensor<?x256xf32>) -> tensor<?x256xf32>
      %outputs_12, %control_13 = tf_executor.island wraps "tf.Mul"(%outputs_4, %outputs_10) {device = ""} : (tensor<?x256xf32>, tensor<?x256xf32>) -> tensor<?x256xf32>
      %outputs_14, %control_15 = tf_executor.island wraps "tf.Identity"(%outputs_12) {device = ""} : (tensor<?x256xf32>) -> tensor<?x256xf32>
      tf_executor.fetch %outputs_14 : tensor<?x256xf32>
    }
    return %0 : tensor<?x256xf32>
  }
  func.func private @__inference_activation_3_layer_call_and_return_conditional_losses_40693240(%arg0: tensor<?x256xf32> {tf._user_specified_name = "inputs"}) -> tensor<?x256xf32> attributes {tf._construction_context = "kEagerRuntime", tf._input_shapes = [#tf_type.shape<?x256>]} {
    %0 = tf_executor.graph {
      %outputs, %control = tf_executor.island wraps "tf.Const"() <{value = dense<1.41421354> : tensor<f32>}> {device = ""} : () -> tensor<f32>
      %outputs_0, %control_1 = tf_executor.island wraps "tf.Const"() <{value = dense<1.000000e+00> : tensor<f32>}> {device = ""} : () -> tensor<f32>
      %outputs_2, %control_3 = tf_executor.island wraps "tf.Const"() <{value = dense<5.000000e-01> : tensor<f32>}> {device = ""} : () -> tensor<f32>
      %outputs_4, %control_5 = tf_executor.island wraps "tf.Mul"(%outputs_2, %arg0) {device = ""} : (tensor<f32>, tensor<?x256xf32>) -> tensor<?x256xf32>
      %outputs_6, %control_7 = tf_executor.island wraps "tf.RealDiv"(%arg0, %outputs) {device = ""} : (tensor<?x256xf32>, tensor<f32>) -> tensor<?x256xf32>
      %outputs_8, %control_9 = tf_executor.island wraps "tf.Erf"(%outputs_6) {device = ""} : (tensor<?x256xf32>) -> tensor<?x256xf32>
      %outputs_10, %control_11 = tf_executor.island wraps "tf.AddV2"(%outputs_0, %outputs_8) {device = ""} : (tensor<f32>, tensor<?x256xf32>) -> tensor<?x256xf32>
      %outputs_12, %control_13 = tf_executor.island wraps "tf.Mul"(%outputs_4, %outputs_10) {device = ""} : (tensor<?x256xf32>, tensor<?x256xf32>) -> tensor<?x256xf32>
      %outputs_14, %control_15 = tf_executor.island wraps "tf.Identity"(%outputs_12) {device = ""} : (tensor<?x256xf32>) -> tensor<?x256xf32>
      tf_executor.fetch %outputs_14 : tensor<?x256xf32>
    }
    return %0 : tensor<?x256xf32>
  }
  func.func private @__inference_activation_3_layer_call_fn_40693120(%arg0: tensor<?x256xf32> {tf._user_specified_name = "inputs"}) -> tensor<?x256xf32> attributes {tf._construction_context = "kEagerRuntime", tf._input_shapes = [#tf_type.shape<?x256>]} {
    %0 = tf_executor.graph {
      %outputs, %control = tf_executor.island wraps "tf.PartitionedCall"(%arg0) <{config = "", config_proto = "\0A\07\0A\03CPU\10\01\0A\07\0A\03GPU\10\012\07 \01*\010J\008\01\82\01\00", executor_type = "", f = @__inference_activation_3_layer_call_and_return_conditional_losses_40689140}> {_collective_manager_ids = [], _read_only_resource_inputs = [], device = ""} : (tensor<?x256xf32>) -> tensor<?x256xf32>
      %outputs_0, %control_1 = tf_executor.island wraps "tf.Identity"(%outputs) {device = ""} : (tensor<?x256xf32>) -> tensor<?x256xf32>
      tf_executor.fetch %outputs_0 : tensor<?x256xf32>
    }
    return %0 : tensor<?x256xf32>
  }
  func.func private @__inference_dense_3_layer_call_and_return_conditional_losses_40688660(%arg0: tensor<?x384xf32> {tf._user_specified_name = "inputs"}, %arg1: tensor<!tf_type.resource>, %arg2: tensor<!tf_type.resource>) -> tensor<?x256xf32> attributes {tf._construction_context = "kEagerRuntime", tf._input_shapes = [#tf_type.shape<?x384>, #tf_type.shape<>, #tf_type.shape<>], tf.signature.is_stateful} {
    %0 = tf_executor.graph {
      %outputs, %control = tf_executor.island wraps "tf.ReadVariableOp"(%arg2) {device = ""} : (tensor<!tf_type.resource>) -> tensor<256xf32>
      %outputs_0, %control_1 = tf_executor.island wraps "tf.ReadVariableOp"(%arg1) {device = ""} : (tensor<!tf_type.resource>) -> tensor<384x256xf32>
      %outputs_2, %control_3 = tf_executor.island wraps "tf.MatMul"(%arg0, %outputs_0) <{grad_a = false, grad_b = false, transpose_a = false, transpose_b = false}> {device = ""} : (tensor<?x384xf32>, tensor<384x256xf32>) -> tensor<?x256xf32>
      %outputs_4, %control_5 = tf_executor.island wraps "tf.BiasAdd"(%outputs_2, %outputs) <{data_format = "NHWC"}> {device = ""} : (tensor<?x256xf32>, tensor<256xf32>) -> tensor<?x256xf32>
      %control_6 = tf_executor.island(%control_1, %control) wraps "tf.NoOp"() {_acd_function_control_output = true, device = ""} : () -> ()
      %outputs_7, %control_8 = tf_executor.island(%control_6) wraps "tf.Identity"(%outputs_4) {device = ""} : (tensor<?x256xf32>) -> tensor<?x256xf32>
      tf_executor.fetch %outputs_7, %control_1, %control : tensor<?x256xf32>, !tf_executor.control, !tf_executor.control
    }
    return %0 : tensor<?x256xf32>
  }
  func.func private @__inference_dense_3_layer_call_and_return_conditional_losses_40692710(%arg0: tensor<?x384xf32> {tf._user_specified_name = "inputs"}, %arg1: tensor<!tf_type.resource>, %arg2: tensor<!tf_type.resource>) -> tensor<?x256xf32> attributes {tf._construction_context = "kEagerRuntime", tf._input_shapes = [#tf_type.shape<?x384>, #tf_type.shape<>, #tf_type.shape<>], tf.signature.is_stateful} {
    %0 = tf_executor.graph {
      %outputs, %control = tf_executor.island wraps "tf.ReadVariableOp"(%arg2) {device = ""} : (tensor<!tf_type.resource>) -> tensor<256xf32>
      %outputs_0, %control_1 = tf_executor.island wraps "tf.ReadVariableOp"(%arg1) {device = ""} : (tensor<!tf_type.resource>) -> tensor<384x256xf32>
      %outputs_2, %control_3 = tf_executor.island wraps "tf.MatMul"(%arg0, %outputs_0) <{grad_a = false, grad_b = false, transpose_a = false, transpose_b = false}> {device = ""} : (tensor<?x384xf32>, tensor<384x256xf32>) -> tensor<?x256xf32>
      %outputs_4, %control_5 = tf_executor.island wraps "tf.BiasAdd"(%outputs_2, %outputs) <{data_format = "NHWC"}> {device = ""} : (tensor<?x256xf32>, tensor<256xf32>) -> tensor<?x256xf32>
      %control_6 = tf_executor.island(%control_1, %control) wraps "tf.NoOp"() {_acd_function_control_output = true, device = ""} : () -> ()
      %outputs_7, %control_8 = tf_executor.island(%control_6) wraps "tf.Identity"(%outputs_4) {device = ""} : (tensor<?x256xf32>) -> tensor<?x256xf32>
      tf_executor.fetch %outputs_7, %control_1, %control : tensor<?x256xf32>, !tf_executor.control, !tf_executor.control
    }
    return %0 : tensor<?x256xf32>
  }
  func.func private @__inference_dense_3_layer_call_fn_40692610(%arg0: tensor<?x384xf32> {tf._user_specified_name = "inputs"}, %arg1: tensor<!tf_type.resource>, %arg2: tensor<!tf_type.resource>) -> tensor<?x?xf32> attributes {tf._construction_context = "kEagerRuntime", tf._input_shapes = [#tf_type.shape<?x384>, #tf_type.shape<>, #tf_type.shape<>], tf.signature.is_stateful} {
    %0 = tf_executor.graph {
      %outputs, %control = tf_executor.island wraps "tf.StatefulPartitionedCall"(%arg0, %arg1, %arg2) <{config = "", config_proto = "\0A\07\0A\03CPU\10\01\0A\07\0A\03GPU\10\012\07 \01*\010J\008\01\82\01\00", executor_type = "", f = @__inference_dense_3_layer_call_and_return_conditional_losses_40688660}> {_collective_manager_ids = [], _read_only_resource_inputs = [1, 2], device = ""} : (tensor<?x384xf32>, tensor<!tf_type.resource>, tensor<!tf_type.resource>) -> tensor<?x?xf32>
      %control_0 = tf_executor.island(%control) wraps "tf.NoOp"() {_acd_function_control_output = true, device = ""} : () -> ()
      %outputs_1, %control_2 = tf_executor.island(%control_0) wraps "tf.Identity"(%outputs) {device = ""} : (tensor<?x?xf32>) -> tensor<?x?xf32>
      tf_executor.fetch %outputs_1, %control : tensor<?x?xf32>, !tf_executor.control
    }
    return %0 : tensor<?x?xf32>
  }
  func.func private @__inference_dense_4_layer_call_and_return_conditional_losses_40688960(%arg0: tensor<?x256xf32> {tf._user_specified_name = "inputs"}, %arg1: tensor<!tf_type.resource>, %arg2: tensor<!tf_type.resource>) -> tensor<?x256xf32> attributes {tf._construction_context = "kEagerRuntime", tf._input_shapes = [#tf_type.shape<?x256>, #tf_type.shape<>, #tf_type.shape<>], tf.signature.is_stateful} {
    %0 = tf_executor.graph {
      %outputs, %control = tf_executor.island wraps "tf.ReadVariableOp"(%arg2) {device = ""} : (tensor<!tf_type.resource>) -> tensor<256xf32>
      %outputs_0, %control_1 = tf_executor.island wraps "tf.ReadVariableOp"(%arg1) {device = ""} : (tensor<!tf_type.resource>) -> tensor<256x256xf32>
      %outputs_2, %control_3 = tf_executor.island wraps "tf.MatMul"(%arg0, %outputs_0) <{grad_a = false, grad_b = false, transpose_a = false, transpose_b = false}> {device = ""} : (tensor<?x256xf32>, tensor<256x256xf32>) -> tensor<?x256xf32>
      %outputs_4, %control_5 = tf_executor.island wraps "tf.BiasAdd"(%outputs_2, %outputs) <{data_format = "NHWC"}> {device = ""} : (tensor<?x256xf32>, tensor<256xf32>) -> tensor<?x256xf32>
      %control_6 = tf_executor.island(%control_1, %control) wraps "tf.NoOp"() {_acd_function_control_output = true, device = ""} : () -> ()
      %outputs_7, %control_8 = tf_executor.island(%control_6) wraps "tf.Identity"(%outputs_4) {device = ""} : (tensor<?x256xf32>) -> tensor<?x256xf32>
      tf_executor.fetch %outputs_7, %control_1, %control : tensor<?x256xf32>, !tf_executor.control, !tf_executor.control
    }
    return %0 : tensor<?x256xf32>
  }
  func.func private @__inference_dense_4_layer_call_and_return_conditional_losses_40693070(%arg0: tensor<?x256xf32> {tf._user_specified_name = "inputs"}, %arg1: tensor<!tf_type.resource>, %arg2: tensor<!tf_type.resource>) -> tensor<?x256xf32> attributes {tf._construction_context = "kEagerRuntime", tf._input_shapes = [#tf_type.shape<?x256>, #tf_type.shape<>, #tf_type.shape<>], tf.signature.is_stateful} {
    %0 = tf_executor.graph {
      %outputs, %control = tf_executor.island wraps "tf.ReadVariableOp"(%arg2) {device = ""} : (tensor<!tf_type.resource>) -> tensor<256xf32>
      %outputs_0, %control_1 = tf_executor.island wraps "tf.ReadVariableOp"(%arg1) {device = ""} : (tensor<!tf_type.resource>) -> tensor<256x256xf32>
      %outputs_2, %control_3 = tf_executor.island wraps "tf.MatMul"(%arg0, %outputs_0) <{grad_a = false, grad_b = false, transpose_a = false, transpose_b = false}> {device = ""} : (tensor<?x256xf32>, tensor<256x256xf32>) -> tensor<?x256xf32>
      %outputs_4, %control_5 = tf_executor.island wraps "tf.BiasAdd"(%outputs_2, %outputs) <{data_format = "NHWC"}> {device = ""} : (tensor<?x256xf32>, tensor<256xf32>) -> tensor<?x256xf32>
      %control_6 = tf_executor.island(%control_1, %control) wraps "tf.NoOp"() {_acd_function_control_output = true, device = ""} : () -> ()
      %outputs_7, %control_8 = tf_executor.island(%control_6) wraps "tf.Identity"(%outputs_4) {device = ""} : (tensor<?x256xf32>) -> tensor<?x256xf32>
      tf_executor.fetch %outputs_7, %control_1, %control : tensor<?x256xf32>, !tf_executor.control, !tf_executor.control
    }
    return %0 : tensor<?x256xf32>
  }
  func.func private @__inference_dense_4_layer_call_fn_40692970(%arg0: tensor<?x256xf32> {tf._user_specified_name = "inputs"}, %arg1: tensor<!tf_type.resource>, %arg2: tensor<!tf_type.resource>) -> tensor<?x?xf32> attributes {tf._construction_context = "kEagerRuntime", tf._input_shapes = [#tf_type.shape<?x256>, #tf_type.shape<>, #tf_type.shape<>], tf.signature.is_stateful} {
    %0 = tf_executor.graph {
      %outputs, %control = tf_executor.island wraps "tf.StatefulPartitionedCall"(%arg0, %arg1, %arg2) <{config = "", config_proto = "\0A\07\0A\03CPU\10\01\0A\07\0A\03GPU\10\012\07 \01*\010J\008\01\82\01\00", executor_type = "", f = @__inference_dense_4_layer_call_and_return_conditional_losses_40688960}> {_collective_manager_ids = [], _read_only_resource_inputs = [1, 2], device = ""} : (tensor<?x256xf32>, tensor<!tf_type.resource>, tensor<!tf_type.resource>) -> tensor<?x?xf32>
      %control_0 = tf_executor.island(%control) wraps "tf.NoOp"() {_acd_function_control_output = true, device = ""} : () -> ()
      %outputs_1, %control_2 = tf_executor.island(%control_0) wraps "tf.Identity"(%outputs) {device = ""} : (tensor<?x?xf32>) -> tensor<?x?xf32>
      tf_executor.fetch %outputs_1, %control : tensor<?x?xf32>, !tf_executor.control
    }
    return %0 : tensor<?x?xf32>
  }
  func.func private @__inference_dense_5_layer_call_and_return_conditional_losses_40689260(%arg0: tensor<?x256xf32> {tf._user_specified_name = "inputs"}, %arg1: tensor<!tf_type.resource>, %arg2: tensor<!tf_type.resource>) -> tensor<?x256xf32> attributes {tf._construction_context = "kEagerRuntime", tf._input_shapes = [#tf_type.shape<?x256>, #tf_type.shape<>, #tf_type.shape<>], tf.signature.is_stateful} {
    %0 = tf_executor.graph {
      %outputs, %control = tf_executor.island wraps "tf.ReadVariableOp"(%arg2) {device = ""} : (tensor<!tf_type.resource>) -> tensor<256xf32>
      %outputs_0, %control_1 = tf_executor.island wraps "tf.ReadVariableOp"(%arg1) {device = ""} : (tensor<!tf_type.resource>) -> tensor<256x256xf32>
      %outputs_2, %control_3 = tf_executor.island wraps "tf.MatMul"(%arg0, %outputs_0) <{grad_a = false, grad_b = false, transpose_a = false, transpose_b = false}> {device = ""} : (tensor<?x256xf32>, tensor<256x256xf32>) -> tensor<?x256xf32>
      %outputs_4, %control_5 = tf_executor.island wraps "tf.BiasAdd"(%outputs_2, %outputs) <{data_format = "NHWC"}> {device = ""} : (tensor<?x256xf32>, tensor<256xf32>) -> tensor<?x256xf32>
      %control_6 = tf_executor.island(%control_1, %control) wraps "tf.NoOp"() {_acd_function_control_output = true, device = ""} : () -> ()
      %outputs_7, %control_8 = tf_executor.island(%control_6) wraps "tf.Identity"(%outputs_4) {device = ""} : (tensor<?x256xf32>) -> tensor<?x256xf32>
      tf_executor.fetch %outputs_7, %control_1, %control : tensor<?x256xf32>, !tf_executor.control, !tf_executor.control
    }
    return %0 : tensor<?x256xf32>
  }
  func.func private @__inference_dense_5_layer_call_and_return_conditional_losses_40693430(%arg0: tensor<?x256xf32> {tf._user_specified_name = "inputs"}, %arg1: tensor<!tf_type.resource>, %arg2: tensor<!tf_type.resource>) -> tensor<?x256xf32> attributes {tf._construction_context = "kEagerRuntime", tf._input_shapes = [#tf_type.shape<?x256>, #tf_type.shape<>, #tf_type.shape<>], tf.signature.is_stateful} {
    %0 = tf_executor.graph {
      %outputs, %control = tf_executor.island wraps "tf.ReadVariableOp"(%arg2) {device = ""} : (tensor<!tf_type.resource>) -> tensor<256xf32>
      %outputs_0, %control_1 = tf_executor.island wraps "tf.ReadVariableOp"(%arg1) {device = ""} : (tensor<!tf_type.resource>) -> tensor<256x256xf32>
      %outputs_2, %control_3 = tf_executor.island wraps "tf.MatMul"(%arg0, %outputs_0) <{grad_a = false, grad_b = false, transpose_a = false, transpose_b = false}> {device = ""} : (tensor<?x256xf32>, tensor<256x256xf32>) -> tensor<?x256xf32>
      %outputs_4, %control_5 = tf_executor.island wraps "tf.BiasAdd"(%outputs_2, %outputs) <{data_format = "NHWC"}> {device = ""} : (tensor<?x256xf32>, tensor<256xf32>) -> tensor<?x256xf32>
      %control_6 = tf_executor.island(%control_1, %control) wraps "tf.NoOp"() {_acd_function_control_output = true, device = ""} : () -> ()
      %outputs_7, %control_8 = tf_executor.island(%control_6) wraps "tf.Identity"(%outputs_4) {device = ""} : (tensor<?x256xf32>) -> tensor<?x256xf32>
      tf_executor.fetch %outputs_7, %control_1, %control : tensor<?x256xf32>, !tf_executor.control, !tf_executor.control
    }
    return %0 : tensor<?x256xf32>
  }
  func.func private @__inference_dense_5_layer_call_fn_40693330(%arg0: tensor<?x256xf32> {tf._user_specified_name = "inputs"}, %arg1: tensor<!tf_type.resource>, %arg2: tensor<!tf_type.resource>) -> tensor<?x?xf32> attributes {tf._construction_context = "kEagerRuntime", tf._input_shapes = [#tf_type.shape<?x256>, #tf_type.shape<>, #tf_type.shape<>], tf.signature.is_stateful} {
    %0 = tf_executor.graph {
      %outputs, %control = tf_executor.island wraps "tf.StatefulPartitionedCall"(%arg0, %arg1, %arg2) <{config = "", config_proto = "\0A\07\0A\03CPU\10\01\0A\07\0A\03GPU\10\012\07 \01*\010J\008\01\82\01\00", executor_type = "", f = @__inference_dense_5_layer_call_and_return_conditional_losses_40689260}> {_collective_manager_ids = [], _read_only_resource_inputs = [1, 2], device = ""} : (tensor<?x256xf32>, tensor<!tf_type.resource>, tensor<!tf_type.resource>) -> tensor<?x?xf32>
      %control_0 = tf_executor.island(%control) wraps "tf.NoOp"() {_acd_function_control_output = true, device = ""} : () -> ()
      %outputs_1, %control_2 = tf_executor.island(%control_0) wraps "tf.Identity"(%outputs) {device = ""} : (tensor<?x?xf32>) -> tensor<?x?xf32>
      tf_executor.fetch %outputs_1, %control : tensor<?x?xf32>, !tf_executor.control
    }
    return %0 : tensor<?x?xf32>
  }
  func.func private @__inference_flatten_1_layer_call_and_return_conditional_losses_40688540(%arg0: tensor<?x16x24xf32> {tf._user_specified_name = "inputs"}) -> tensor<?x384xf32> attributes {tf._construction_context = "kEagerRuntime", tf._input_shapes = [#tf_type.shape<?x16x24>]} {
    %0 = tf_executor.graph {
      %outputs, %control = tf_executor.island wraps "tf.Const"() <{value = dense<[-1, 384]> : tensor<2xi32>}> {device = ""} : () -> tensor<2xi32>
      %outputs_0, %control_1 = tf_executor.island wraps "tf.Reshape"(%arg0, %outputs) {device = ""} : (tensor<?x16x24xf32>, tensor<2xi32>) -> tensor<?x384xf32>
      %outputs_2, %control_3 = tf_executor.island wraps "tf.Identity"(%outputs_0) {device = ""} : (tensor<?x384xf32>) -> tensor<?x384xf32>
      tf_executor.fetch %outputs_2 : tensor<?x384xf32>
    }
    return %0 : tensor<?x384xf32>
  }
  func.func private @__inference_flatten_1_layer_call_and_return_conditional_losses_40692520(%arg0: tensor<?x16x24xf32> {tf._user_specified_name = "inputs"}) -> tensor<?x384xf32> attributes {tf._construction_context = "kEagerRuntime", tf._input_shapes = [#tf_type.shape<?x16x24>]} {
    %0 = tf_executor.graph {
      %outputs, %control = tf_executor.island wraps "tf.Const"() <{value = dense<[-1, 384]> : tensor<2xi32>}> {device = ""} : () -> tensor<2xi32>
      %outputs_0, %control_1 = tf_executor.island wraps "tf.Reshape"(%arg0, %outputs) {device = ""} : (tensor<?x16x24xf32>, tensor<2xi32>) -> tensor<?x384xf32>
      %outputs_2, %control_3 = tf_executor.island wraps "tf.Identity"(%outputs_0) {device = ""} : (tensor<?x384xf32>) -> tensor<?x384xf32>
      tf_executor.fetch %outputs_2 : tensor<?x384xf32>
    }
    return %0 : tensor<?x384xf32>
  }
  func.func private @__inference_flatten_1_layer_call_fn_40692460(%arg0: tensor<?x16x24xf32> {tf._user_specified_name = "inputs"}) -> tensor<?x384xf32> attributes {tf._construction_context = "kEagerRuntime", tf._input_shapes = [#tf_type.shape<?x16x24>]} {
    %0 = tf_executor.graph {
      %outputs, %control = tf_executor.island wraps "tf.PartitionedCall"(%arg0) <{config = "", config_proto = "\0A\07\0A\03CPU\10\01\0A\07\0A\03GPU\10\012\07 \01*\010J\008\01\82\01\00", executor_type = "", f = @__inference_flatten_1_layer_call_and_return_conditional_losses_40688540}> {_collective_manager_ids = [], _read_only_resource_inputs = [], device = ""} : (tensor<?x16x24xf32>) -> tensor<?x384xf32>
      %outputs_0, %control_1 = tf_executor.island wraps "tf.Identity"(%outputs) {device = ""} : (tensor<?x384xf32>) -> tensor<?x384xf32>
      tf_executor.fetch %outputs_0 : tensor<?x384xf32>
    }
    return %0 : tensor<?x384xf32>
  }
  func.func private @__inference_model_3_layer_call_and_return_conditional_losses_40689400(%arg0: tensor<?x16x24xf32> {tf._user_specified_name = "inputs"}, %arg1: tensor<!tf_type.resource>, %arg2: tensor<!tf_type.resource>, %arg3: tensor<!tf_type.resource>, %arg4: tensor<!tf_type.resource>, %arg5: tensor<!tf_type.resource>, %arg6: tensor<!tf_type.resource>) -> tensor<?x?xf32> attributes {tf._construction_context = "kEagerRuntime", tf._input_shapes = [#tf_type.shape<?x16x24>, #tf_type.shape<>, #tf_type.shape<>, #tf_type.shape<>, #tf_type.shape<>, #tf_type.shape<>, #tf_type.shape<>], tf.signature.is_stateful} {
    %0 = tf_executor.graph {
      %outputs, %control = tf_executor.island wraps "tf.PartitionedCall"(%arg0) <{config = "", config_proto = "\0A\07\0A\03CPU\10\01\0A\07\0A\03GPU\10\012\07 \01*\010J\008\01\82\01\00", executor_type = "", f = @__inference_spatial_dropout1d_1_layer_call_and_return_conditional_losses_40688100}> {_collective_manager_ids = [], _read_only_resource_inputs = [], device = ""} : (tensor<?x16x24xf32>) -> tensor<?x16x24xf32>
      %outputs_0, %control_1 = tf_executor.island wraps "tf.PartitionedCall"(%outputs) <{config = "", config_proto = "\0A\07\0A\03CPU\10\01\0A\07\0A\03GPU\10\012\07 \01*\010J\008\01\82\01\00", executor_type = "", f = @__inference_flatten_1_layer_call_and_return_conditional_losses_40688540}> {_collective_manager_ids = [], _read_only_resource_inputs = [], device = ""} : (tensor<?x16x24xf32>) -> tensor<?x384xf32>
      %outputs_2, %control_3 = tf_executor.island wraps "tf.StatefulPartitionedCall"(%outputs_0, %arg1, %arg2) <{config = "", config_proto = "\0A\07\0A\03CPU\10\01\0A\07\0A\03GPU\10\012\07 \01*\010J\008\01\82\01\00", executor_type = "", f = @__inference_dense_3_layer_call_and_return_conditional_losses_40688660}> {_collective_manager_ids = [], _read_only_resource_inputs = [1, 2], device = ""} : (tensor<?x384xf32>, tensor<!tf_type.resource>, tensor<!tf_type.resource>) -> tensor<?x?xf32>
      %outputs_4, %control_5 = tf_executor.island wraps "tf.PartitionedCall"(%outputs_2) <{config = "", config_proto = "\0A\07\0A\03CPU\10\01\0A\07\0A\03GPU\10\012\07 \01*\010J\008\01\82\01\00", executor_type = "", f = @__inference_activation_2_layer_call_and_return_conditional_losses_40688840}> {_collective_manager_ids = [], _read_only_resource_inputs = [], device = ""} : (tensor<?x?xf32>) -> tensor<?x?xf32>
      %outputs_6, %control_7 = tf_executor.island wraps "tf.StatefulPartitionedCall"(%outputs_4, %arg3, %arg4) <{config = "", config_proto = "\0A\07\0A\03CPU\10\01\0A\07\0A\03GPU\10\012\07 \01*\010J\008\01\82\01\00", executor_type = "", f = @__inference_dense_4_layer_call_and_return_conditional_losses_40688960}> {_collective_manager_ids = [], _read_only_resource_inputs = [1, 2], device = ""} : (tensor<?x?xf32>, tensor<!tf_type.resource>, tensor<!tf_type.resource>) -> tensor<?x?xf32>
      %outputs_8, %control_9 = tf_executor.island wraps "tf.PartitionedCall"(%outputs_6) <{config = "", config_proto = "\0A\07\0A\03CPU\10\01\0A\07\0A\03GPU\10\012\07 \01*\010J\008\01\82\01\00", executor_type = "", f = @__inference_activation_3_layer_call_and_return_conditional_losses_40689140}> {_collective_manager_ids = [], _read_only_resource_inputs = [], device = ""} : (tensor<?x?xf32>) -> tensor<?x?xf32>
      %outputs_10, %control_11 = tf_executor.island wraps "tf.StatefulPartitionedCall"(%outputs_8, %arg5, %arg6) <{config = "", config_proto = "\0A\07\0A\03CPU\10\01\0A\07\0A\03GPU\10\012\07 \01*\010J\008\01\82\01\00", executor_type = "", f = @__inference_dense_5_layer_call_and_return_conditional_losses_40689260}> {_collective_manager_ids = [], _read_only_resource_inputs = [1, 2], device = ""} : (tensor<?x?xf32>, tensor<!tf_type.resource>, tensor<!tf_type.resource>) -> tensor<?x?xf32>
      %control_12 = tf_executor.island(%control_3, %control_7, %control_11) wraps "tf.NoOp"() {_acd_function_control_output = true, device = ""} : () -> ()
      %outputs_13, %control_14 = tf_executor.island wraps "tf.PartitionedCall"(%outputs_10) <{config = "", config_proto = "\0A\07\0A\03CPU\10\01\0A\07\0A\03GPU\10\012\07 \01*\010J\008\01\82\01\00", executor_type = "", f = @__inference_tokenizer_layer_call_and_return_conditional_losses_40689370}> {_collective_manager_ids = [], _read_only_resource_inputs = [], device = ""} : (tensor<?x?xf32>) -> tensor<?x?xf32>
      %outputs_15, %control_16 = tf_executor.island(%control_12) wraps "tf.Identity"(%outputs_13) {device = ""} : (tensor<?x?xf32>) -> tensor<?x?xf32>
      tf_executor.fetch %outputs_15, %control_3, %control_7, %control_11 : tensor<?x?xf32>, !tf_executor.control, !tf_executor.control, !tf_executor.control
    }
    return %0 : tensor<?x?xf32>
  }
  func.func private @__inference_model_3_layer_call_and_return_conditional_losses_40690350(%arg0: tensor<?x16x24xf32> {tf._user_specified_name = "inputs"}, %arg1: tensor<!tf_type.resource>, %arg2: tensor<!tf_type.resource>, %arg3: tensor<!tf_type.resource>, %arg4: tensor<!tf_type.resource>, %arg5: tensor<!tf_type.resource>, %arg6: tensor<!tf_type.resource>) -> tensor<?x?xf32> attributes {tf._construction_context = "kEagerRuntime", tf._input_shapes = [#tf_type.shape<?x16x24>, #tf_type.shape<>, #tf_type.shape<>, #tf_type.shape<>, #tf_type.shape<>, #tf_type.shape<>, #tf_type.shape<>], tf.signature.is_stateful} {
    %0 = tf_executor.graph {
      %outputs, %control = tf_executor.island wraps "tf.StatefulPartitionedCall"(%arg0) <{config = "", config_proto = "\0A\07\0A\03CPU\10\01\0A\07\0A\03GPU\10\012\07 \01*\010J\008\01\82\01\00", executor_type = "", f = @__inference_spatial_dropout1d_1_layer_call_and_return_conditional_losses_40688370}> {_collective_manager_ids = [], _read_only_resource_inputs = [], device = ""} : (tensor<?x16x24xf32>) -> tensor<?x16x24xf32>
      %outputs_0, %control_1 = tf_executor.island wraps "tf.PartitionedCall"(%outputs) <{config = "", config_proto = "\0A\07\0A\03CPU\10\01\0A\07\0A\03GPU\10\012\07 \01*\010J\008\01\82\01\00", executor_type = "", f = @__inference_flatten_1_layer_call_and_return_conditional_losses_40688540}> {_collective_manager_ids = [], _read_only_resource_inputs = [], device = ""} : (tensor<?x16x24xf32>) -> tensor<?x384xf32>
      %outputs_2, %control_3 = tf_executor.island wraps "tf.StatefulPartitionedCall"(%outputs_0, %arg1, %arg2) <{config = "", config_proto = "\0A\07\0A\03CPU\10\01\0A\07\0A\03GPU\10\012\07 \01*\010J\008\01\82\01\00", executor_type = "", f = @__inference_dense_3_layer_call_and_return_conditional_losses_40688660}> {_collective_manager_ids = [], _read_only_resource_inputs = [1, 2], device = ""} : (tensor<?x384xf32>, tensor<!tf_type.resource>, tensor<!tf_type.resource>) -> tensor<?x?xf32>
      %outputs_4, %control_5 = tf_executor.island wraps "tf.PartitionedCall"(%outputs_2) <{config = "", config_proto = "\0A\07\0A\03CPU\10\01\0A\07\0A\03GPU\10\012\07 \01*\010J\008\01\82\01\00", executor_type = "", f = @__inference_activation_2_layer_call_and_return_conditional_losses_40688840}> {_collective_manager_ids = [], _read_only_resource_inputs = [], device = ""} : (tensor<?x?xf32>) -> tensor<?x?xf32>
      %outputs_6, %control_7 = tf_executor.island wraps "tf.StatefulPartitionedCall"(%outputs_4, %arg3, %arg4) <{config = "", config_proto = "\0A\07\0A\03CPU\10\01\0A\07\0A\03GPU\10\012\07 \01*\010J\008\01\82\01\00", executor_type = "", f = @__inference_dense_4_layer_call_and_return_conditional_losses_40688960}> {_collective_manager_ids = [], _read_only_resource_inputs = [1, 2], device = ""} : (tensor<?x?xf32>, tensor<!tf_type.resource>, tensor<!tf_type.resource>) -> tensor<?x?xf32>
      %outputs_8, %control_9 = tf_executor.island wraps "tf.PartitionedCall"(%outputs_6) <{config = "", config_proto = "\0A\07\0A\03CPU\10\01\0A\07\0A\03GPU\10\012\07 \01*\010J\008\01\82\01\00", executor_type = "", f = @__inference_activation_3_layer_call_and_return_conditional_losses_40689140}> {_collective_manager_ids = [], _read_only_resource_inputs = [], device = ""} : (tensor<?x?xf32>) -> tensor<?x?xf32>
      %outputs_10, %control_11 = tf_executor.island wraps "tf.StatefulPartitionedCall"(%outputs_8, %arg5, %arg6) <{config = "", config_proto = "\0A\07\0A\03CPU\10\01\0A\07\0A\03GPU\10\012\07 \01*\010J\008\01\82\01\00", executor_type = "", f = @__inference_dense_5_layer_call_and_return_conditional_losses_40689260}> {_collective_manager_ids = [], _read_only_resource_inputs = [1, 2], device = ""} : (tensor<?x?xf32>, tensor<!tf_type.resource>, tensor<!tf_type.resource>) -> tensor<?x?xf32>
      %control_12 = tf_executor.island(%control, %control_3, %control_7, %control_11) wraps "tf.NoOp"() {_acd_function_control_output = true, device = ""} : () -> ()
      %outputs_13, %control_14 = tf_executor.island wraps "tf.PartitionedCall"(%outputs_10) <{config = "", config_proto = "\0A\07\0A\03CPU\10\01\0A\07\0A\03GPU\10\012\07 \01*\010J\008\01\82\01\00", executor_type = "", f = @__inference_tokenizer_layer_call_and_return_conditional_losses_40689370}> {_collective_manager_ids = [], _read_only_resource_inputs = [], device = ""} : (tensor<?x?xf32>) -> tensor<?x?xf32>
      %outputs_15, %control_16 = tf_executor.island(%control_12) wraps "tf.Identity"(%outputs_13) {device = ""} : (tensor<?x?xf32>) -> tensor<?x?xf32>
      tf_executor.fetch %outputs_15, %control, %control_3, %control_7, %control_11 : tensor<?x?xf32>, !tf_executor.control, !tf_executor.control, !tf_executor.control, !tf_executor.control
    }
    return %0 : tensor<?x?xf32>
  }
  func.func private @__inference_model_3_layer_call_and_return_conditional_losses_40691450(%arg0: tensor<?x16x24xf32> {tf._user_specified_name = "inputs"}, %arg1: tensor<!tf_type.resource>, %arg2: tensor<!tf_type.resource>, %arg3: tensor<!tf_type.resource>, %arg4: tensor<!tf_type.resource>, %arg5: tensor<!tf_type.resource>, %arg6: tensor<!tf_type.resource>) -> tensor<?x256xf32> attributes {tf._construction_context = "kEagerRuntime", tf._input_shapes = [#tf_type.shape<?x16x24>, #tf_type.shape<>, #tf_type.shape<>, #tf_type.shape<>, #tf_type.shape<>, #tf_type.shape<>, #tf_type.shape<>], tf.signature.is_stateful} {
    %0 = tf_executor.graph {
      %outputs, %control = tf_executor.island wraps "tf.Const"() <{value = dense<1.41421354> : tensor<f32>}> {device = ""} : () -> tensor<f32>
      %outputs_0, %control_1 = tf_executor.island wraps "tf.Const"() <{value = dense<1.000000e+00> : tensor<f32>}> {device = ""} : () -> tensor<f32>
      %outputs_2, %control_3 = tf_executor.island wraps "tf.Const"() <{value = dense<5.000000e-01> : tensor<f32>}> {device = ""} : () -> tensor<f32>
      %outputs_4, %control_5 = tf_executor.island wraps "tf.Const"() <{value = dense<1.41421354> : tensor<f32>}> {device = ""} : () -> tensor<f32>
      %outputs_6, %control_7 = tf_executor.island wraps "tf.Const"() <{value = dense<1.000000e+00> : tensor<f32>}> {device = ""} : () -> tensor<f32>
      %outputs_8, %control_9 = tf_executor.island wraps "tf.Const"() <{value = dense<5.000000e-01> : tensor<f32>}> {device = ""} : () -> tensor<f32>
      %outputs_10, %control_11 = tf_executor.island wraps "tf.ReadVariableOp"(%arg2) {device = ""} : (tensor<!tf_type.resource>) -> tensor<256xf32>
      %outputs_12, %control_13 = tf_executor.island wraps "tf.ReadVariableOp"(%arg1) {device = ""} : (tensor<!tf_type.resource>) -> tensor<384x256xf32>
      %outputs_14, %control_15 = tf_executor.island wraps "tf.ReadVariableOp"(%arg4) {device = ""} : (tensor<!tf_type.resource>) -> tensor<256xf32>
      %outputs_16, %control_17 = tf_executor.island wraps "tf.ReadVariableOp"(%arg3) {device = ""} : (tensor<!tf_type.resource>) -> tensor<256x256xf32>
      %outputs_18, %control_19 = tf_executor.island wraps "tf.ReadVariableOp"(%arg6) {device = ""} : (tensor<!tf_type.resource>) -> tensor<256xf32>
      %outputs_20, %control_21 = tf_executor.island wraps "tf.ReadVariableOp"(%arg5) {device = ""} : (tensor<!tf_type.resource>) -> tensor<256x256xf32>
      %control_22 = tf_executor.island(%control_13, %control_11, %control_17, %control_15, %control_21, %control_19) wraps "tf.NoOp"() {_acd_function_control_output = true, device = ""} : () -> ()
      %outputs_23, %control_24 = tf_executor.island wraps "tf.Const"() <{value = dense<[-1, 384]> : tensor<2xi32>}> {device = ""} : () -> tensor<2xi32>
      %outputs_25, %control_26 = tf_executor.island wraps "tf.Identity"(%arg0) {device = ""} : (tensor<?x16x24xf32>) -> tensor<?x16x24xf32>
      %outputs_27, %control_28 = tf_executor.island wraps "tf.Reshape"(%outputs_25, %outputs_23) {device = ""} : (tensor<?x16x24xf32>, tensor<2xi32>) -> tensor<?x384xf32>
      %outputs_29, %control_30 = tf_executor.island wraps "tf.MatMul"(%outputs_27, %outputs_12) <{grad_a = false, grad_b = false, transpose_a = false, transpose_b = false}> {device = ""} : (tensor<?x384xf32>, tensor<384x256xf32>) -> tensor<?x256xf32>
      %outputs_31, %control_32 = tf_executor.island wraps "tf.BiasAdd"(%outputs_29, %outputs_10) <{data_format = "NHWC"}> {device = ""} : (tensor<?x256xf32>, tensor<256xf32>) -> tensor<?x256xf32>
      %outputs_33, %control_34 = tf_executor.island wraps "tf.Mul"(%outputs_2, %outputs_31) {device = ""} : (tensor<f32>, tensor<?x256xf32>) -> tensor<?x256xf32>
      %outputs_35, %control_36 = tf_executor.island wraps "tf.RealDiv"(%outputs_31, %outputs) {device = ""} : (tensor<?x256xf32>, tensor<f32>) -> tensor<?x256xf32>
      %outputs_37, %control_38 = tf_executor.island wraps "tf.Erf"(%outputs_35) {device = ""} : (tensor<?x256xf32>) -> tensor<?x256xf32>
      %outputs_39, %control_40 = tf_executor.island wraps "tf.AddV2"(%outputs_0, %outputs_37) {device = ""} : (tensor<f32>, tensor<?x256xf32>) -> tensor<?x256xf32>
      %outputs_41, %control_42 = tf_executor.island wraps "tf.Mul"(%outputs_33, %outputs_39) {device = ""} : (tensor<?x256xf32>, tensor<?x256xf32>) -> tensor<?x256xf32>
      %outputs_43, %control_44 = tf_executor.island wraps "tf.MatMul"(%outputs_41, %outputs_16) <{grad_a = false, grad_b = false, transpose_a = false, transpose_b = false}> {device = ""} : (tensor<?x256xf32>, tensor<256x256xf32>) -> tensor<?x256xf32>
      %outputs_45, %control_46 = tf_executor.island wraps "tf.BiasAdd"(%outputs_43, %outputs_14) <{data_format = "NHWC"}> {device = ""} : (tensor<?x256xf32>, tensor<256xf32>) -> tensor<?x256xf32>
      %outputs_47, %control_48 = tf_executor.island wraps "tf.Mul"(%outputs_8, %outputs_45) {device = ""} : (tensor<f32>, tensor<?x256xf32>) -> tensor<?x256xf32>
      %outputs_49, %control_50 = tf_executor.island wraps "tf.RealDiv"(%outputs_45, %outputs_4) {device = ""} : (tensor<?x256xf32>, tensor<f32>) -> tensor<?x256xf32>
      %outputs_51, %control_52 = tf_executor.island wraps "tf.Erf"(%outputs_49) {device = ""} : (tensor<?x256xf32>) -> tensor<?x256xf32>
      %outputs_53, %control_54 = tf_executor.island wraps "tf.AddV2"(%outputs_6, %outputs_51) {device = ""} : (tensor<f32>, tensor<?x256xf32>) -> tensor<?x256xf32>
      %outputs_55, %control_56 = tf_executor.island wraps "tf.Mul"(%outputs_47, %outputs_53) {device = ""} : (tensor<?x256xf32>, tensor<?x256xf32>) -> tensor<?x256xf32>
      %outputs_57, %control_58 = tf_executor.island wraps "tf.MatMul"(%outputs_55, %outputs_20) <{grad_a = false, grad_b = false, transpose_a = false, transpose_b = false}> {device = ""} : (tensor<?x256xf32>, tensor<256x256xf32>) -> tensor<?x256xf32>
      %outputs_59, %control_60 = tf_executor.island wraps "tf.BiasAdd"(%outputs_57, %outputs_18) <{data_format = "NHWC"}> {device = ""} : (tensor<?x256xf32>, tensor<256xf32>) -> tensor<?x256xf32>
      %outputs_61, %control_62 = tf_executor.island wraps "tf.Tanh"(%outputs_59) {device = ""} : (tensor<?x256xf32>) -> tensor<?x256xf32>
      %outputs_63, %control_64 = tf_executor.island(%control_22) wraps "tf.Identity"(%outputs_61) {device = ""} : (tensor<?x256xf32>) -> tensor<?x256xf32>
      tf_executor.fetch %outputs_63, %control_13, %control_11, %control_17, %control_15, %control_21, %control_19 : tensor<?x256xf32>, !tf_executor.control, !tf_executor.control, !tf_executor.control, !tf_executor.control, !tf_executor.control, !tf_executor.control
    }
    return %0 : tensor<?x256xf32>
  }
  func.func private @__inference_model_3_layer_call_and_return_conditional_losses_40692040(%arg0: tensor<?x16x24xf32> {tf._user_specified_name = "inputs"}, %arg1: tensor<!tf_type.resource>, %arg2: tensor<!tf_type.resource>, %arg3: tensor<!tf_type.resource>, %arg4: tensor<!tf_type.resource>, %arg5: tensor<!tf_type.resource>, %arg6: tensor<!tf_type.resource>) -> tensor<?x256xf32> attributes {tf._construction_context = "kEagerRuntime", tf._input_shapes = [#tf_type.shape<?x16x24>, #tf_type.shape<>, #tf_type.shape<>, #tf_type.shape<>, #tf_type.shape<>, #tf_type.shape<>, #tf_type.shape<>], tf.signature.is_stateful} {
    %0 = tf_executor.graph {
      %outputs, %control = tf_executor.island wraps "tf.Const"() <{value = dense<1.41421354> : tensor<f32>}> {device = ""} : () -> tensor<f32>
      %outputs_0, %control_1 = tf_executor.island wraps "tf.Const"() <{value = dense<1.000000e+00> : tensor<f32>}> {device = ""} : () -> tensor<f32>
      %outputs_2, %control_3 = tf_executor.island wraps "tf.Const"() <{value = dense<5.000000e-01> : tensor<f32>}> {device = ""} : () -> tensor<f32>
      %outputs_4, %control_5 = tf_executor.island wraps "tf.Const"() <{value = dense<1.41421354> : tensor<f32>}> {device = ""} : () -> tensor<f32>
      %outputs_6, %control_7 = tf_executor.island wraps "tf.Const"() <{value = dense<1.000000e+00> : tensor<f32>}> {device = ""} : () -> tensor<f32>
      %outputs_8, %control_9 = tf_executor.island wraps "tf.Const"() <{value = dense<5.000000e-01> : tensor<f32>}> {device = ""} : () -> tensor<f32>
      %outputs_10, %control_11 = tf_executor.island wraps "tf.ReadVariableOp"(%arg2) {device = ""} : (tensor<!tf_type.resource>) -> tensor<256xf32>
      %outputs_12, %control_13 = tf_executor.island wraps "tf.ReadVariableOp"(%arg1) {device = ""} : (tensor<!tf_type.resource>) -> tensor<384x256xf32>
      %outputs_14, %control_15 = tf_executor.island wraps "tf.ReadVariableOp"(%arg4) {device = ""} : (tensor<!tf_type.resource>) -> tensor<256xf32>
      %outputs_16, %control_17 = tf_executor.island wraps "tf.ReadVariableOp"(%arg3) {device = ""} : (tensor<!tf_type.resource>) -> tensor<256x256xf32>
      %outputs_18, %control_19 = tf_executor.island wraps "tf.ReadVariableOp"(%arg6) {device = ""} : (tensor<!tf_type.resource>) -> tensor<256xf32>
      %outputs_20, %control_21 = tf_executor.island wraps "tf.ReadVariableOp"(%arg5) {device = ""} : (tensor<!tf_type.resource>) -> tensor<256x256xf32>
      %control_22 = tf_executor.island(%control_13, %control_11, %control_17, %control_15, %control_21, %control_19) wraps "tf.NoOp"() {_acd_function_control_output = true, device = ""} : () -> ()
      %outputs_23, %control_24 = tf_executor.island wraps "tf.Const"() <{value = dense<[-1, 384]> : tensor<2xi32>}> {device = ""} : () -> tensor<2xi32>
      %outputs_25, %control_26 = tf_executor.island wraps "tf.Shape"(%arg0) {device = ""} : (tensor<?x16x24xf32>) -> tensor<3xi32>
      %outputs_27, %control_28 = tf_executor.island wraps "tf.Const"() <{value = dense<1.06666672> : tensor<f32>}> {device = ""} : () -> tensor<f32>
      %outputs_29, %control_30 = tf_executor.island wraps "tf.Mul"(%arg0, %outputs_27) {device = ""} : (tensor<?x16x24xf32>, tensor<f32>) -> tensor<?x16x24xf32>
      %outputs_31, %control_32 = tf_executor.island wraps "tf.Const"() <{value = dense<0.000000e+00> : tensor<f32>}> {device = ""} : () -> tensor<f32>
      %outputs_33, %control_34 = tf_executor.island wraps "tf.Const"() <{value = dense<6.250000e-02> : tensor<f32>}> {device = ""} : () -> tensor<f32>
      %outputs_35, %control_36 = tf_executor.island wraps "tf.Const"() <{value = dense<1> : tensor<i32>}> {device = ""} : () -> tensor<i32>
      %outputs_37, %control_38 = tf_executor.island wraps "tf.Const"() <{value = dense<0> : tensor<1xi32>}> {device = ""} : () -> tensor<1xi32>
      %outputs_39, %control_40 = tf_executor.island wraps "tf.Const"() <{value = dense<1> : tensor<1xi32>}> {device = ""} : () -> tensor<1xi32>
      %outputs_41, %control_42 = tf_executor.island wraps "tf.Const"() <{value = dense<1> : tensor<1xi32>}> {device = ""} : () -> tensor<1xi32>
      %outputs_43, %control_44 = tf_executor.island wraps "tf.StridedSlice"(%outputs_25, %outputs_37, %outputs_39, %outputs_41) <{begin_mask = 0 : i64, ellipsis_mask = 0 : i64, end_mask = 0 : i64, new_axis_mask = 0 : i64, shrink_axis_mask = 1 : i64}> {device = ""} : (tensor<3xi32>, tensor<1xi32>, tensor<1xi32>, tensor<1xi32>) -> tensor<i32>
      %outputs_45, %control_46 = tf_executor.island wraps "tf.Const"() <{value = dense<2> : tensor<1xi32>}> {device = ""} : () -> tensor<1xi32>
      %outputs_47, %control_48 = tf_executor.island wraps "tf.Const"() <{value = dense<3> : tensor<1xi32>}> {device = ""} : () -> tensor<1xi32>
      %outputs_49, %control_50 = tf_executor.island wraps "tf.Const"() <{value = dense<1> : tensor<1xi32>}> {device = ""} : () -> tensor<1xi32>
      %outputs_51, %control_52 = tf_executor.island wraps "tf.StridedSlice"(%outputs_25, %outputs_45, %outputs_47, %outputs_49) <{begin_mask = 0 : i64, ellipsis_mask = 0 : i64, end_mask = 0 : i64, new_axis_mask = 0 : i64, shrink_axis_mask = 1 : i64}> {device = ""} : (tensor<3xi32>, tensor<1xi32>, tensor<1xi32>, tensor<1xi32>) -> tensor<i32>
      %outputs_53, %control_54 = tf_executor.island wraps "tf.Pack"(%outputs_43, %outputs_35, %outputs_51) <{axis = 0 : i64}> {device = ""} : (tensor<i32>, tensor<i32>, tensor<i32>) -> tensor<3xi32>
      %outputs_55, %control_56 = tf_executor.island wraps "tf.RandomUniform"(%outputs_53) <{seed = 0 : i64, seed2 = 0 : i64}> {device = ""} : (tensor<3xi32>) -> tensor<?x1x24xf32>
      %outputs_57, %control_58 = tf_executor.island wraps "tf.GreaterEqual"(%outputs_55, %outputs_33) {device = ""} : (tensor<?x1x24xf32>, tensor<f32>) -> tensor<?x1x24xi1>
      %outputs_59, %control_60 = tf_executor.island wraps "tf.SelectV2"(%outputs_57, %outputs_29, %outputs_31) {device = ""} : (tensor<?x1x24xi1>, tensor<?x16x24xf32>, tensor<f32>) -> tensor<?x16x24xf32>
      %outputs_61, %control_62 = tf_executor.island wraps "tf.Reshape"(%outputs_59, %outputs_23) {device = ""} : (tensor<?x16x24xf32>, tensor<2xi32>) -> tensor<?x384xf32>
      %outputs_63, %control_64 = tf_executor.island wraps "tf.MatMul"(%outputs_61, %outputs_12) <{grad_a = false, grad_b = false, transpose_a = false, transpose_b = false}> {device = ""} : (tensor<?x384xf32>, tensor<384x256xf32>) -> tensor<?x256xf32>
      %outputs_65, %control_66 = tf_executor.island wraps "tf.BiasAdd"(%outputs_63, %outputs_10) <{data_format = "NHWC"}> {device = ""} : (tensor<?x256xf32>, tensor<256xf32>) -> tensor<?x256xf32>
      %outputs_67, %control_68 = tf_executor.island wraps "tf.Mul"(%outputs_2, %outputs_65) {device = ""} : (tensor<f32>, tensor<?x256xf32>) -> tensor<?x256xf32>
      %outputs_69, %control_70 = tf_executor.island wraps "tf.RealDiv"(%outputs_65, %outputs) {device = ""} : (tensor<?x256xf32>, tensor<f32>) -> tensor<?x256xf32>
      %outputs_71, %control_72 = tf_executor.island wraps "tf.Erf"(%outputs_69) {device = ""} : (tensor<?x256xf32>) -> tensor<?x256xf32>
      %outputs_73, %control_74 = tf_executor.island wraps "tf.AddV2"(%outputs_0, %outputs_71) {device = ""} : (tensor<f32>, tensor<?x256xf32>) -> tensor<?x256xf32>
      %outputs_75, %control_76 = tf_executor.island wraps "tf.Mul"(%outputs_67, %outputs_73) {device = ""} : (tensor<?x256xf32>, tensor<?x256xf32>) -> tensor<?x256xf32>
      %outputs_77, %control_78 = tf_executor.island wraps "tf.MatMul"(%outputs_75, %outputs_16) <{grad_a = false, grad_b = false, transpose_a = false, transpose_b = false}> {device = ""} : (tensor<?x256xf32>, tensor<256x256xf32>) -> tensor<?x256xf32>
      %outputs_79, %control_80 = tf_executor.island wraps "tf.BiasAdd"(%outputs_77, %outputs_14) <{data_format = "NHWC"}> {device = ""} : (tensor<?x256xf32>, tensor<256xf32>) -> tensor<?x256xf32>
      %outputs_81, %control_82 = tf_executor.island wraps "tf.Mul"(%outputs_8, %outputs_79) {device = ""} : (tensor<f32>, tensor<?x256xf32>) -> tensor<?x256xf32>
      %outputs_83, %control_84 = tf_executor.island wraps "tf.RealDiv"(%outputs_79, %outputs_4) {device = ""} : (tensor<?x256xf32>, tensor<f32>) -> tensor<?x256xf32>
      %outputs_85, %control_86 = tf_executor.island wraps "tf.Erf"(%outputs_83) {device = ""} : (tensor<?x256xf32>) -> tensor<?x256xf32>
      %outputs_87, %control_88 = tf_executor.island wraps "tf.AddV2"(%outputs_6, %outputs_85) {device = ""} : (tensor<f32>, tensor<?x256xf32>) -> tensor<?x256xf32>
      %outputs_89, %control_90 = tf_executor.island wraps "tf.Mul"(%outputs_81, %outputs_87) {device = ""} : (tensor<?x256xf32>, tensor<?x256xf32>) -> tensor<?x256xf32>
      %outputs_91, %control_92 = tf_executor.island wraps "tf.MatMul"(%outputs_89, %outputs_20) <{grad_a = false, grad_b = false, transpose_a = false, transpose_b = false}> {device = ""} : (tensor<?x256xf32>, tensor<256x256xf32>) -> tensor<?x256xf32>
      %outputs_93, %control_94 = tf_executor.island wraps "tf.BiasAdd"(%outputs_91, %outputs_18) <{data_format = "NHWC"}> {device = ""} : (tensor<?x256xf32>, tensor<256xf32>) -> tensor<?x256xf32>
      %outputs_95, %control_96 = tf_executor.island wraps "tf.Tanh"(%outputs_93) {device = ""} : (tensor<?x256xf32>) -> tensor<?x256xf32>
      %outputs_97, %control_98 = tf_executor.island(%control_22) wraps "tf.Identity"(%outputs_95) {device = ""} : (tensor<?x256xf32>) -> tensor<?x256xf32>
      tf_executor.fetch %outputs_97, %control_13, %control_11, %control_17, %control_15, %control_21, %control_19 : tensor<?x256xf32>, !tf_executor.control, !tf_executor.control, !tf_executor.control, !tf_executor.control, !tf_executor.control, !tf_executor.control
    }
    return %0 : tensor<?x256xf32>
  }
  func.func private @__inference_model_3_layer_call_fn_40690860(%arg0: tensor<?x16x24xf32> {tf._user_specified_name = "inputs"}, %arg1: tensor<!tf_type.resource>, %arg2: tensor<!tf_type.resource>, %arg3: tensor<!tf_type.resource>, %arg4: tensor<!tf_type.resource>, %arg5: tensor<!tf_type.resource>, %arg6: tensor<!tf_type.resource>) -> tensor<?x?xf32> attributes {tf._construction_context = "kEagerRuntime", tf._input_shapes = [#tf_type.shape<?x16x24>, #tf_type.shape<>, #tf_type.shape<>, #tf_type.shape<>, #tf_type.shape<>, #tf_type.shape<>, #tf_type.shape<>], tf.signature.is_stateful} {
    %0 = tf_executor.graph {
      %outputs, %control = tf_executor.island wraps "tf.StatefulPartitionedCall"(%arg0, %arg1, %arg2, %arg3, %arg4, %arg5, %arg6) <{config = "", config_proto = "\0A\07\0A\03CPU\10\01\0A\07\0A\03GPU\10\012\07 \01*\010J\008\01\82\01\00", executor_type = "", f = @__inference_model_3_layer_call_and_return_conditional_losses_40689400}> {_collective_manager_ids = [], _read_only_resource_inputs = [1, 2, 3, 4, 5, 6], device = ""} : (tensor<?x16x24xf32>, tensor<!tf_type.resource>, tensor<!tf_type.resource>, tensor<!tf_type.resource>, tensor<!tf_type.resource>, tensor<!tf_type.resource>, tensor<!tf_type.resource>) -> tensor<?x?xf32>
      %control_0 = tf_executor.island(%control) wraps "tf.NoOp"() {_acd_function_control_output = true, device = ""} : () -> ()
      %outputs_1, %control_2 = tf_executor.island(%control_0) wraps "tf.Identity"(%outputs) {device = ""} : (tensor<?x?xf32>) -> tensor<?x?xf32>
      tf_executor.fetch %outputs_1, %control : tensor<?x?xf32>, !tf_executor.control
    }
    return %0 : tensor<?x?xf32>
  }
  func.func private @__inference_model_3_layer_call_fn_40691030(%arg0: tensor<?x16x24xf32> {tf._user_specified_name = "inputs"}, %arg1: tensor<!tf_type.resource>, %arg2: tensor<!tf_type.resource>, %arg3: tensor<!tf_type.resource>, %arg4: tensor<!tf_type.resource>, %arg5: tensor<!tf_type.resource>, %arg6: tensor<!tf_type.resource>) -> tensor<?x?xf32> attributes {tf._construction_context = "kEagerRuntime", tf._input_shapes = [#tf_type.shape<?x16x24>, #tf_type.shape<>, #tf_type.shape<>, #tf_type.shape<>, #tf_type.shape<>, #tf_type.shape<>, #tf_type.shape<>], tf.signature.is_stateful} {
    %0 = tf_executor.graph {
      %outputs, %control = tf_executor.island wraps "tf.StatefulPartitionedCall"(%arg0, %arg1, %arg2, %arg3, %arg4, %arg5, %arg6) <{config = "", config_proto = "\0A\07\0A\03CPU\10\01\0A\07\0A\03GPU\10\012\07 \01*\010J\008\01\82\01\00", executor_type = "", f = @__inference_model_3_layer_call_and_return_conditional_losses_40690350}> {_collective_manager_ids = [], _read_only_resource_inputs = [1, 2, 3, 4, 5, 6], device = ""} : (tensor<?x16x24xf32>, tensor<!tf_type.resource>, tensor<!tf_type.resource>, tensor<!tf_type.resource>, tensor<!tf_type.resource>, tensor<!tf_type.resource>, tensor<!tf_type.resource>) -> tensor<?x?xf32>
      %control_0 = tf_executor.island(%control) wraps "tf.NoOp"() {_acd_function_control_output = true, device = ""} : () -> ()
      %outputs_1, %control_2 = tf_executor.island(%control_0) wraps "tf.Identity"(%outputs) {device = ""} : (tensor<?x?xf32>) -> tensor<?x?xf32>
      tf_executor.fetch %outputs_1, %control : tensor<?x?xf32>, !tf_executor.control
    }
    return %0 : tensor<?x?xf32>
  }
  func.func private @__inference_spatial_dropout1d_1_layer_call_and_return_conditional_losses_40688100(%arg0: tensor<?x?x?xf32> {tf._user_specified_name = "inputs"}) -> tensor<?x?x?xf32> attributes {tf._construction_context = "kEagerRuntime", tf._input_shapes = [#tf_type.shape<?x?x?>]} {
    %0 = tf_executor.graph {
      %outputs, %control = tf_executor.island wraps "tf.Identity"(%arg0) {device = ""} : (tensor<?x?x?xf32>) -> tensor<?x?x?xf32>
      %outputs_0, %control_1 = tf_executor.island wraps "tf.Identity"(%outputs) {device = ""} : (tensor<?x?x?xf32>) -> tensor<?x?x?xf32>
      tf_executor.fetch %outputs_0 : tensor<?x?x?xf32>
    }
    return %0 : tensor<?x?x?xf32>
  }
  func.func private @__inference_spatial_dropout1d_1_layer_call_and_return_conditional_losses_40688370(%arg0: tensor<?x?x?xf32> {tf._user_specified_name = "inputs"}) -> tensor<?x?x?xf32> attributes {tf._construction_context = "kEagerRuntime", tf._input_shapes = [#tf_type.shape<?x?x?>], tf.signature.is_stateful} {
    %0 = tf_executor.graph {
      %outputs, %control = tf_executor.island wraps "tf.Const"() <{value = dense<1.06666672> : tensor<f32>}> {device = ""} : () -> tensor<f32>
      %outputs_0, %control_1 = tf_executor.island wraps "tf.Const"() <{value = dense<0.000000e+00> : tensor<f32>}> {device = ""} : () -> tensor<f32>
      %outputs_2, %control_3 = tf_executor.island wraps "tf.Const"() <{value = dense<6.250000e-02> : tensor<f32>}> {device = ""} : () -> tensor<f32>
      %outputs_4, %control_5 = tf_executor.island wraps "tf.Const"() <{value = dense<1> : tensor<i32>}> {device = ""} : () -> tensor<i32>
      %outputs_6, %control_7 = tf_executor.island wraps "tf.Shape"(%arg0) {device = ""} : (tensor<?x?x?xf32>) -> tensor<3xi32>
      %outputs_8, %control_9 = tf_executor.island wraps "tf.Mul"(%arg0, %outputs) {device = ""} : (tensor<?x?x?xf32>, tensor<f32>) -> tensor<?x?x?xf32>
      %outputs_10, %control_11 = tf_executor.island wraps "tf.Const"() <{value = dense<0> : tensor<1xi32>}> {device = ""} : () -> tensor<1xi32>
      %outputs_12, %control_13 = tf_executor.island wraps "tf.Const"() <{value = dense<1> : tensor<1xi32>}> {device = ""} : () -> tensor<1xi32>
      %outputs_14, %control_15 = tf_executor.island wraps "tf.Const"() <{value = dense<1> : tensor<1xi32>}> {device = ""} : () -> tensor<1xi32>
      %outputs_16, %control_17 = tf_executor.island wraps "tf.StridedSlice"(%outputs_6, %outputs_10, %outputs_12, %outputs_14) <{begin_mask = 0 : i64, ellipsis_mask = 0 : i64, end_mask = 0 : i64, new_axis_mask = 0 : i64, shrink_axis_mask = 1 : i64}> {device = ""} : (tensor<3xi32>, tensor<1xi32>, tensor<1xi32>, tensor<1xi32>) -> tensor<i32>
      %outputs_18, %control_19 = tf_executor.island wraps "tf.Const"() <{value = dense<2> : tensor<1xi32>}> {device = ""} : () -> tensor<1xi32>
      %outputs_20, %control_21 = tf_executor.island wraps "tf.Const"() <{value = dense<3> : tensor<1xi32>}> {device = ""} : () -> tensor<1xi32>
      %outputs_22, %control_23 = tf_executor.island wraps "tf.Const"() <{value = dense<1> : tensor<1xi32>}> {device = ""} : () -> tensor<1xi32>
      %outputs_24, %control_25 = tf_executor.island wraps "tf.StridedSlice"(%outputs_6, %outputs_18, %outputs_20, %outputs_22) <{begin_mask = 0 : i64, ellipsis_mask = 0 : i64, end_mask = 0 : i64, new_axis_mask = 0 : i64, shrink_axis_mask = 1 : i64}> {device = ""} : (tensor<3xi32>, tensor<1xi32>, tensor<1xi32>, tensor<1xi32>) -> tensor<i32>
      %outputs_26, %control_27 = tf_executor.island wraps "tf.Pack"(%outputs_16, %outputs_4, %outputs_24) <{axis = 0 : i64}> {device = ""} : (tensor<i32>, tensor<i32>, tensor<i32>) -> tensor<3xi32>
      %outputs_28, %control_29 = tf_executor.island wraps "tf.RandomUniform"(%outputs_26) <{seed = 0 : i64, seed2 = 0 : i64}> {device = ""} : (tensor<3xi32>) -> tensor<?x1x?xf32>
      %outputs_30, %control_31 = tf_executor.island wraps "tf.GreaterEqual"(%outputs_28, %outputs_2) {device = ""} : (tensor<?x1x?xf32>, tensor<f32>) -> tensor<?x1x?xi1>
      %outputs_32, %control_33 = tf_executor.island wraps "tf.SelectV2"(%outputs_30, %outputs_8, %outputs_0) {device = ""} : (tensor<?x1x?xi1>, tensor<?x?x?xf32>, tensor<f32>) -> tensor<?x?x?xf32>
      %outputs_34, %control_35 = tf_executor.island wraps "tf.Identity"(%outputs_32) {device = ""} : (tensor<?x?x?xf32>) -> tensor<?x?x?xf32>
      tf_executor.fetch %outputs_34 : tensor<?x?x?xf32>
    }
    return %0 : tensor<?x?x?xf32>
  }
  func.func private @__inference_spatial_dropout1d_1_layer_call_and_return_conditional_losses_40692190(%arg0: tensor<?x?x?xf32> {tf._user_specified_name = "inputs"}) -> tensor<?x?x?xf32> attributes {tf._construction_context = "kEagerRuntime", tf._input_shapes = [#tf_type.shape<?x?x?>]} {
    %0 = tf_executor.graph {
      %outputs, %control = tf_executor.island wraps "tf.Identity"(%arg0) {device = ""} : (tensor<?x?x?xf32>) -> tensor<?x?x?xf32>
      %outputs_0, %control_1 = tf_executor.island wraps "tf.Identity"(%outputs) {device = ""} : (tensor<?x?x?xf32>) -> tensor<?x?x?xf32>
      tf_executor.fetch %outputs_0 : tensor<?x?x?xf32>
    }
    return %0 : tensor<?x?x?xf32>
  }
  func.func private @__inference_spatial_dropout1d_1_layer_call_and_return_conditional_losses_40692410(%arg0: tensor<?x?x?xf32> {tf._user_specified_name = "inputs"}) -> tensor<?x?x?xf32> attributes {tf._construction_context = "kEagerRuntime", tf._input_shapes = [#tf_type.shape<?x?x?>], tf.signature.is_stateful} {
    %0 = tf_executor.graph {
      %outputs, %control = tf_executor.island wraps "tf.Const"() <{value = dense<1.06666672> : tensor<f32>}> {device = ""} : () -> tensor<f32>
      %outputs_0, %control_1 = tf_executor.island wraps "tf.Const"() <{value = dense<0.000000e+00> : tensor<f32>}> {device = ""} : () -> tensor<f32>
      %outputs_2, %control_3 = tf_executor.island wraps "tf.Const"() <{value = dense<6.250000e-02> : tensor<f32>}> {device = ""} : () -> tensor<f32>
      %outputs_4, %control_5 = tf_executor.island wraps "tf.Const"() <{value = dense<1> : tensor<i32>}> {device = ""} : () -> tensor<i32>
      %outputs_6, %control_7 = tf_executor.island wraps "tf.Shape"(%arg0) {device = ""} : (tensor<?x?x?xf32>) -> tensor<3xi32>
      %outputs_8, %control_9 = tf_executor.island wraps "tf.Mul"(%arg0, %outputs) {device = ""} : (tensor<?x?x?xf32>, tensor<f32>) -> tensor<?x?x?xf32>
      %outputs_10, %control_11 = tf_executor.island wraps "tf.Const"() <{value = dense<0> : tensor<1xi32>}> {device = ""} : () -> tensor<1xi32>
      %outputs_12, %control_13 = tf_executor.island wraps "tf.Const"() <{value = dense<1> : tensor<1xi32>}> {device = ""} : () -> tensor<1xi32>
      %outputs_14, %control_15 = tf_executor.island wraps "tf.Const"() <{value = dense<1> : tensor<1xi32>}> {device = ""} : () -> tensor<1xi32>
      %outputs_16, %control_17 = tf_executor.island wraps "tf.StridedSlice"(%outputs_6, %outputs_10, %outputs_12, %outputs_14) <{begin_mask = 0 : i64, ellipsis_mask = 0 : i64, end_mask = 0 : i64, new_axis_mask = 0 : i64, shrink_axis_mask = 1 : i64}> {device = ""} : (tensor<3xi32>, tensor<1xi32>, tensor<1xi32>, tensor<1xi32>) -> tensor<i32>
      %outputs_18, %control_19 = tf_executor.island wraps "tf.Const"() <{value = dense<2> : tensor<1xi32>}> {device = ""} : () -> tensor<1xi32>
      %outputs_20, %control_21 = tf_executor.island wraps "tf.Const"() <{value = dense<3> : tensor<1xi32>}> {device = ""} : () -> tensor<1xi32>
      %outputs_22, %control_23 = tf_executor.island wraps "tf.Const"() <{value = dense<1> : tensor<1xi32>}> {device = ""} : () -> tensor<1xi32>
      %outputs_24, %control_25 = tf_executor.island wraps "tf.StridedSlice"(%outputs_6, %outputs_18, %outputs_20, %outputs_22) <{begin_mask = 0 : i64, ellipsis_mask = 0 : i64, end_mask = 0 : i64, new_axis_mask = 0 : i64, shrink_axis_mask = 1 : i64}> {device = ""} : (tensor<3xi32>, tensor<1xi32>, tensor<1xi32>, tensor<1xi32>) -> tensor<i32>
      %outputs_26, %control_27 = tf_executor.island wraps "tf.Pack"(%outputs_16, %outputs_4, %outputs_24) <{axis = 0 : i64}> {device = ""} : (tensor<i32>, tensor<i32>, tensor<i32>) -> tensor<3xi32>
      %outputs_28, %control_29 = tf_executor.island wraps "tf.RandomUniform"(%outputs_26) <{seed = 0 : i64, seed2 = 0 : i64}> {device = ""} : (tensor<3xi32>) -> tensor<?x1x?xf32>
      %outputs_30, %control_31 = tf_executor.island wraps "tf.GreaterEqual"(%outputs_28, %outputs_2) {device = ""} : (tensor<?x1x?xf32>, tensor<f32>) -> tensor<?x1x?xi1>
      %outputs_32, %control_33 = tf_executor.island wraps "tf.SelectV2"(%outputs_30, %outputs_8, %outputs_0) {device = ""} : (tensor<?x1x?xi1>, tensor<?x?x?xf32>, tensor<f32>) -> tensor<?x?x?xf32>
      %outputs_34, %control_35 = tf_executor.island wraps "tf.Identity"(%outputs_32) {device = ""} : (tensor<?x?x?xf32>) -> tensor<?x?x?xf32>
      tf_executor.fetch %outputs_34 : tensor<?x?x?xf32>
    }
    return %0 : tensor<?x?x?xf32>
  }
  func.func private @__inference_spatial_dropout1d_1_layer_call_fn_40692090(%arg0: tensor<?x?x?xf32> {tf._user_specified_name = "inputs"}) -> tensor<?x?x?xf32> attributes {tf._construction_context = "kEagerRuntime", tf._input_shapes = [#tf_type.shape<?x?x?>]} {
    %0 = tf_executor.graph {
      %outputs, %control = tf_executor.island wraps "tf.PartitionedCall"(%arg0) <{config = "", config_proto = "\0A\07\0A\03CPU\10\01\0A\07\0A\03GPU\10\012\07 \01*\010J\008\01\82\01\00", executor_type = "", f = @__inference_spatial_dropout1d_1_layer_call_and_return_conditional_losses_40688100}> {_collective_manager_ids = [], _read_only_resource_inputs = [], device = ""} : (tensor<?x?x?xf32>) -> tensor<?x?x?xf32>
      %outputs_0, %control_1 = tf_executor.island wraps "tf.Identity"(%outputs) {device = ""} : (tensor<?x?x?xf32>) -> tensor<?x?x?xf32>
      tf_executor.fetch %outputs_0 : tensor<?x?x?xf32>
    }
    return %0 : tensor<?x?x?xf32>
  }
  func.func private @__inference_spatial_dropout1d_1_layer_call_fn_40692140(%arg0: tensor<?x?x?xf32> {tf._user_specified_name = "inputs"}) -> tensor<?x?x?xf32> attributes {tf._construction_context = "kEagerRuntime", tf._input_shapes = [#tf_type.shape<?x?x?>], tf.signature.is_stateful} {
    %0 = tf_executor.graph {
      %outputs, %control = tf_executor.island wraps "tf.StatefulPartitionedCall"(%arg0) <{config = "", config_proto = "\0A\07\0A\03CPU\10\01\0A\07\0A\03GPU\10\012\07 \01*\010J\008\01\82\01\00", executor_type = "", f = @__inference_spatial_dropout1d_1_layer_call_and_return_conditional_losses_40688370}> {_collective_manager_ids = [], _read_only_resource_inputs = [], device = ""} : (tensor<?x?x?xf32>) -> tensor<?x?x?xf32>
      %control_0 = tf_executor.island(%control) wraps "tf.NoOp"() {_acd_function_control_output = true, device = ""} : () -> ()
      %outputs_1, %control_2 = tf_executor.island(%control_0) wraps "tf.Identity"(%outputs) {device = ""} : (tensor<?x?x?xf32>) -> tensor<?x?x?xf32>
      tf_executor.fetch %outputs_1, %control : tensor<?x?x?xf32>, !tf_executor.control
    }
    return %0 : tensor<?x?x?xf32>
  }
  func.func private @__inference_tokenizer_layer_call_and_return_conditional_losses_40689370(%arg0: tensor<?x256xf32> {tf._user_specified_name = "inputs"}) -> tensor<?x256xf32> attributes {tf._construction_context = "kEagerRuntime", tf._input_shapes = [#tf_type.shape<?x256>]} {
    %0 = tf_executor.graph {
      %outputs, %control = tf_executor.island wraps "tf.Tanh"(%arg0) {device = ""} : (tensor<?x256xf32>) -> tensor<?x256xf32>
      %outputs_0, %control_1 = tf_executor.island wraps "tf.Identity"(%outputs) {device = ""} : (tensor<?x256xf32>) -> tensor<?x256xf32>
      tf_executor.fetch %outputs_0 : tensor<?x256xf32>
    }
    return %0 : tensor<?x256xf32>
  }
  func.func private @__inference_tokenizer_layer_call_and_return_conditional_losses_40693530(%arg0: tensor<?x256xf32> {tf._user_specified_name = "inputs"}) -> tensor<?x256xf32> attributes {tf._construction_context = "kEagerRuntime", tf._input_shapes = [#tf_type.shape<?x256>]} {
    %0 = tf_executor.graph {
      %outputs, %control = tf_executor.island wraps "tf.Tanh"(%arg0) {device = ""} : (tensor<?x256xf32>) -> tensor<?x256xf32>
      %outputs_0, %control_1 = tf_executor.island wraps "tf.Identity"(%outputs) {device = ""} : (tensor<?x256xf32>) -> tensor<?x256xf32>
      tf_executor.fetch %outputs_0 : tensor<?x256xf32>
    }
    return %0 : tensor<?x256xf32>
  }
  func.func private @__inference_tokenizer_layer_call_fn_40693480(%arg0: tensor<?x256xf32> {tf._user_specified_name = "inputs"}) -> tensor<?x256xf32> attributes {tf._construction_context = "kEagerRuntime", tf._input_shapes = [#tf_type.shape<?x256>]} {
    %0 = tf_executor.graph {
      %outputs, %control = tf_executor.island wraps "tf.PartitionedCall"(%arg0) <{config = "", config_proto = "\0A\07\0A\03CPU\10\01\0A\07\0A\03GPU\10\012\07 \01*\010J\008\01\82\01\00", executor_type = "", f = @__inference_tokenizer_layer_call_and_return_conditional_losses_40689370}> {_collective_manager_ids = [], _read_only_resource_inputs = [], device = ""} : (tensor<?x256xf32>) -> tensor<?x256xf32>
      %outputs_0, %control_1 = tf_executor.island wraps "tf.Identity"(%outputs) {device = ""} : (tensor<?x256xf32>) -> tensor<?x256xf32>
      tf_executor.fetch %outputs_0 : tensor<?x256xf32>
    }
    return %0 : tensor<?x256xf32>
  }
}
