module attributes {tf_saved_model.semantics, tfl.description = "MLIR Converted.", tfl.metadata = {CONVERSION_METADATA = "\0C\00\00\00\08\00\0E\00\08\00\04\00\08\00\00\00\10\00\00\00(\00\00\00\00\00\06\00\08\00\04\00\06\00\00\00\04\00\00\00\01\00\00\00\EB\03\00\00\0C\00\1C\00\18\00\14\00\10\00\04\00\0C\00\00\00\81\A3\99\BF\1E\F6\BD-\00\00\00\00\01\00\00\00\02\00\00\00\04\00\00\00\12\00\00\002.17.0-dev20240426\00\00", min_runtime_version = "2.9.0\00\00\00\00\00\00\00\00\00\00\00"}, tfl.schema_version = 3 : i32} {
  func.func @main(%arg0: tensor<?x16x24x!quant.uniform<i8:f32, 0.0039215688593685627:-128>> {tf_saved_model.index_path = ["args_0"]}) -> (tensor<?x256x!quant.uniform<i8:f32, 7.812500e-03>> {tf_saved_model.index_path = ["tokenizer"]}) attributes {tf.entry_function = {inputs = "serving_default_args_0:0", outputs = "StatefulPartitionedCall:0"}, tf_saved_model.exported_names = ["serving_default"]} {
    %0 = "tosa.const"() <{value = dense<"…"> : tensor<256xi8>}> : () -> tensor<256x!quant.uniform<i8:f32, 1.000000e+00>>
    %1 = "tosa.const"() <{value = dense<"…"> : tensor<256xi32>}> : () -> tensor<256x!quant.uniform<i32:f32:0, {… >>
    %2 = "tosa.const"() <{value = dense<"…"> : tensor<256x256xi8>}> : () -> tensor<256x256x!quant.uniform<i8<-127:127>:f32:0, {… >>
    %3 = "tosa.const"() <{value = dense<"…"> : tensor<256xi8>}> : () -> tensor<256x!quant.uniform<i8:f32, 1.000000e+00>>
    %4 = "tosa.const"() <{value = dense<"…"> : tensor<256xi32>}> : () -> tensor<256x!quant.uniform<i32:f32:0, {… >>
    %5 = "tosa.const"() <{value = dense<"…"> : tensor<256x256xi8>}> : () -> tensor<256x256x!quant.uniform<i8<-127:127>:f32:0, {… >>
    %6 = "tosa.const"() <{value = dense<"…"> : tensor<256xi8>}> : () -> tensor<256x!quant.uniform<i8:f32, 1.000000e+00>>
    %7 = "tosa.const"() <{value = dense<"…"> : tensor<256xi32>}> : () -> tensor<256x!quant.uniform<i32:f32:0, {… >>
    %8 = "tosa.const"() <{value = dense<"…"> : tensor<256x384xi8>}> : () -> tensor<256x384x!quant.uniform<i8<-127:127>:f32:0, {… >>
    %9 = tosa.reshape %arg0 {new_shape = array<i64: -1, 384>} : (tensor<?x16x24x!quant.uniform<i8:f32, 0.0039215688593685627:-128>>) -> tensor<?x384x!quant.uniform<i8:f32, 0.0039215688593685627:-128>>
    %10 = tosa.fully_connected %9, %8, %7 {quantization_info = #tosa.conv_quant<input_zp = -128, weight_zp = 0>} : (tensor<?x384x!quant.uniform<i8:f32, 0.0039215688593685627:-128>>, tensor<256x384x!quant.uniform<i8<-127:127>:f32:0, {… >>, tensor<256x!quant.uniform<i32:f32:0, {… >>) -> tensor<?x256x!quant.uniform<i32:f32:0, {… >>
    %11 = tosa.rescale %10 {double_round = true, input_zp = 0 : i32, multiplier = array<i32: 1592442858, 1075079436, 1363726082, 1863643873, 1222814898, 1606779769, 1270387769, 1743347910, 1729105009, 1583929942, 1666507951, 1438810927, 1305597053, 1869053968, 2135157205, 1511457709, 1596606437, 1296924242, 1725362312, 1627492738, 1347255853, 1469579815, 1729593546, 1262128365, 1300689065, 1838507421, 1767429799, 1751711059, 1346825531, 1932713457, 1350551413, 1132155278, 1349250713, 1243038543, 1832875674, 1648258416, 1865896768, 1394014889, 2010738965, 1116258943, 1789419474, 2130565467, 1650748303, 1463958590, 1356656947, 1567517830, 1706242693, 1511282177, 2117094117, 2032652724, 1544168157, 2111923372, 1868413993, 1646185772, 1123128848, 1629911626, 1872522306, 1159327695, 1270519737, 1534178321, 1147175532, 1481210989, 1155925144, 1939208994, 1082867807, 2046845671, 1768878496, 1383504655, 1991740301, 1315609408, 1507962033, 2086293270, 1303470816, 1756434765, 1110998810, 1265109248, 1487594029, 2085438133, 1904549019, 1977285976, 1326632665, 2016023190, 1717299090, 1289269413, 1716778298, 1379254835, 1146826534, 1571845828, 1221802324, 1191142689, 2040284051, 1367067664, 1353148389, 1734308008, 1928111886, 1841158973, 1925861548, 1130646399, 1732616222, 1618455884, 1746940743, 1801933812, 1863332538, 2002875957, 2076636402, 1137379518, 1718417572, 1393903572, 1267048154, 1696706190, 1177128519, 1140530523, 1602685616, 1577825195, 1844728991, 1212453840, 1105319468, 1940403589, 1444312673, 1108347159, 1373670290, 1942507406, 1807685923, 1782942031, 2065876393, 1835332520, 2035186666, 1435980303, 1704112522, 1701932593, 1477864097, 1203869040, 1220872156, 2058008861, 1816428062, 1602967351, 1228617751, 1447328858, 1304122199, 1736722175, 2031701021, 2034764212, 1555183449, 1987885696, 1359532216, 1891095369, 1174977795, 1740376370, 1131707649, 1752845472, 1194849395, 1122573147, 1279275053, 1990589957, 1499094711, 1884445246, 1134560989, 1387180287, 1078570982, 1136800609, 1416769035, 1119337080, 1155208171, 1738342175, 1532824519, 1432385603, 1537295892, 1922512984, 1798951454, 1487001747, 1181419936, 1894592618, 1502035079, 1232929720, 1566937840, 2104509567, 1259438068, 1598418292, 1515236889, 1104889835, 1420543299, 1565568697, 1171046783, 1198892905, 1663106285, 1134459407, 2016073538, 1655212596, 1390556484, 1234964701, 1115246959, 1126345345, 1315797035, 1514921720, 1493585590, 1517335494, 1913395985, 2054365680, 1623603716, 1497140268, 1374785134, 1327875741, 1225626149, 1689758894, 2077803266, 2084616824, 1681345199, 1241226196, 1261047841, 1731381112, 2138764591, 2130456904, 1496118057, 1329766363, 1417336340, 1485455893, 1117690038, 1175070724, 1248937668, 1732254539, 2130903943, 2056737170, 2033582007, 1478436516, 1377802401, 1664453302, 1741062957, 1803812044, 1987424890, 1997307735, 1086453362, 1225293673, 1324451458, 1119412603, 1189618862, 1805152374, 2058911002, 1212758684, 2018818904, 2008334434, 1689736276, 1165760001, 1484373303, 1557969821, 1078165834, 1079998930, 1995140590, 1903149294, 1542747387, 2036496512, 1714862108, 1303299120, 1153826244, 1383160182, 1630214897, 1446031305>, output_zp = 97 : i32, per_channel = true, scale32 = true, shift = array<i8: 45, 44, 45, 44, 45, 45, 43, 42, 45, 45, 44, 45, 44, 44, 44, 42, 45, 44, 42, 45, 43, 42, 45, 42, 43, 44, 44, 45, 43, 43, 42, 42, 44, 42, 42, 44, 45, 45, 43, 42, 43, 44, 43, 43, 44, 44, 42, 44, 45, 45, 44, 42, 45, 44, 43, 43, 44, 42, 42, 45, 44, 44, 42, 44, 44, 43, 44, 45, 44, 42, 42, 45, 42, 43, 41, 43, 45, 45, 44, 43, 45, 46, 43, 43, 44, 44, 42, 45, 45, 44, 44, 44, 45, 42, 45, 44, 44, 42, 43, 44, 44, 44, 46, 43, 44, 44, 44, 44, 44, 42, 43, 42, 43, 45, 45, 45, 44, 43, 43, 41, 45, 45, 45, 43, 44, 43, 45, 45, 44, 44, 44, 42, 45, 44, 44, 43, 44, 43, 44, 43, 43, 44, 45, 45, 45, 44, 43, 43, 43, 44, 43, 44, 44, 44, 44, 45, 42, 45, 44, 42, 42, 45, 45, 42, 42, 45, 45, 44, 43, 44, 44, 42, 43, 45, 44, 44, 43, 42, 43, 43, 43, 44, 45, 45, 44, 45, 46, 44, 42, 45, 42, 43, 44, 44, 45, 43, 44, 44, 44, 43, 42, 44, 45, 42, 45, 46, 44, 45, 44, 45, 43, 45, 44, 45, 45, 43, 44, 43, 44, 44, 46, 45, 43, 43, 44, 42, 43, 43, 42, 45, 45, 45, 45, 43, 44, 44, 43, 42, 43, 43, 44, 45, 44, 45, 42, 44, 44, 45, 44, 45, 45, 42, 43, 45, 45, 42>} : (tensor<?x256x!quant.uniform<i32:f32:0, {… >>) -> tensor<?x256x!quant.uniform<i8:f32, 0.3266884982585907:97>>
    %12 = tosa.table %11, %6 : (tensor<?x256x!quant.uniform<i8:f32, 0.3266884982585907:97>>, tensor<256x!quant.uniform<i8:f32, 1.000000e+00>>) -> tensor<?x256x!quant.uniform<i8:f32, 0.039230354130268097:-124>>
    %13 = tosa.fully_connected %12, %5, %4 {quantization_info = #tosa.conv_quant<input_zp = -124, weight_zp = 0>} : (tensor<?x256x!quant.uniform<i8:f32, 0.039230354130268097:-124>>, tensor<256x256x!quant.uniform<i8<-127:127>:f32:0, {… >>, tensor<256x!quant.uniform<i32:f32:0, {… >>) -> tensor<?x256x!quant.uniform<i32:f32:0, {… >>
    %14 = tosa.rescale %13 {double_round = true, input_zp = 0 : i32, multiplier = array<i32: 2006391924, 1268617237, 1898437295, 2118811594, 2010217605, 1549599242, 1143406781, 1800436467, 1478567099, 1383936525, 1360234432, 1764954524, 1114178605, 1633878620, 1548224017, 1377733119, 1157728734, 1832687353, 2073913593, 2037585731, 1223480594, 1945198415, 1104258166, 2036313657, 1779138047, 1124895241, 1504689226, 1688269371, 1137487777, 1660123455, 1391219507, 1572417326, 1490740893, 1818140307, 1466747368, 1898995873, 1300991981, 1561221617, 1831530190, 1949624982, 1130723237, 1315531102, 2059463308, 1501117525, 1833075928, 1411572819, 1364401650, 2011673486, 1788500803, 1135401100, 1200407892, 2058533155, 1350546244, 1708836784, 1091334957, 1965693480, 1730423057, 1585018809, 1997586851, 1267260162, 1958313866, 1871447136, 1320238492, 1934231761, 1150954480, 2115636138, 1634976219, 2088147989, 2099182388, 2058970686, 1205040890, 1333186242, 1634320881, 1619494802, 1187367471, 1206873970, 1514077930, 1250429084, 1979385276, 1142713352, 1144744939, 1354174952, 1406988265, 1224203805, 1458361164, 1694068991, 1479034284, 1094674791, 1839032640, 2012817100, 1828205439, 1846535090, 1231928536, 1488748293, 1507186080, 1443666102, 1657169258, 1927695893, 2087491628, 1351286710, 1662366713, 1518327465, 1327771364, 1394136509, 2086026161, 1160273777, 1173521395, 1629034590, 1161166095, 1862012417, 1439600117, 1085732310, 1674000464, 1935944306, 1258747160, 1772888242, 1208100667, 1324487516, 1214597806, 1881742091, 1339675200, 1845873106, 1872802294, 1811067079, 1592998031, 1748031031, 1085247102, 1900960864, 1933037402, 1404674195, 1312801486, 1697348237, 2093033433, 1331963379, 2123661376, 1501044539, 1994116896, 2006320856, 1643417002, 1423053824, 1695196627, 1889502228, 2025162046, 1404346846, 1974426079, 2056545795, 2083978470, 1252282360, 1125756370, 2038101488, 1735900312, 2143655640, 1181579483, 1878054584, 1407057033, 1672066533, 1472817074, 1132621506, 1446061210, 1364709443, 1724228470, 1102145925, 1923132941, 1711232787, 1252531355, 1955544625, 1466428839, 1576890164, 1826540571, 1209323275, 1996230287, 1150024838, 1146596553, 1867337310, 1963442042, 1120706165, 1799302951, 1478090838, 2115302015, 1198823807, 2087300025, 1382264883, 1478181974, 1594736268, 1146214240, 1742928163, 1978334588, 1707476769, 1224486673, 1276173117, 1806158499, 1851436896, 1225753251, 1899918868, 1144501056, 1686614090, 1760584581, 1523551123, 1203673078, 1359603124, 1355647322, 1452236496, 1289559932, 1995126298, 1600892636, 1609739252, 1085746498, 1360318027, 1222819377, 2146665312, 1286422567, 2091203549, 1379836413, 1561262648, 2090100965, 1319327896, 1426822113, 1335643472, 1957256403, 1741535170, 1299847984, 1717066152, 1969507785, 1398618039, 1111665134, 1419068878, 1608107489, 1675376073, 1727144194, 1403616605, 1206853518, 1452545439, 1851745072, 1399951722, 1786393547, 1273163956, 1532338046, 2063272755, 1726876281, 1361085208, 1508200212, 1736498897, 1370126111, 1733063965, 1739375380, 1220102415, 1895837929, 1191185866, 1278556849, 1998901745, 1478617460, 1467757537, 1130290563, 1215565155, 1843165986, 1752054323>, output_zp = 12 : i32, per_channel = true, scale32 = true, shift = array<i8: 40, 38, 39, 39, 40, 40, 39, 40, 39, 40, 39, 40, 39, 40, 40, 39, 38, 39, 40, 40, 39, 39, 39, 40, 39, 39, 39, 40, 39, 40, 40, 39, 40, 40, 40, 40, 39, 39, 40, 40, 39, 40, 40, 39, 40, 38, 40, 40, 40, 40, 40, 40, 39, 39, 39, 40, 38, 40, 40, 39, 39, 39, 39, 40, 39, 41, 40, 40, 40, 39, 38, 38, 39, 40, 39, 39, 39, 38, 40, 39, 38, 39, 40, 39, 39, 40, 40, 39, 40, 40, 40, 39, 39, 38, 40, 40, 40, 40, 40, 39, 39, 40, 39, 40, 38, 39, 39, 39, 39, 40, 39, 39, 39, 40, 38, 39, 38, 39, 39, 40, 39, 39, 40, 40, 38, 39, 39, 39, 40, 39, 38, 39, 40, 39, 40, 40, 40, 40, 40, 40, 40, 39, 40, 39, 40, 40, 40, 38, 38, 40, 40, 40, 38, 40, 38, 40, 39, 38, 38, 39, 40, 39, 39, 40, 37, 40, 39, 39, 39, 39, 39, 39, 38, 40, 39, 39, 38, 40, 40, 39, 40, 39, 40, 40, 39, 39, 39, 39, 39, 37, 37, 40, 38, 40, 39, 39, 40, 39, 39, 39, 40, 40, 39, 40, 39, 40, 38, 39, 40, 40, 39, 40, 39, 39, 40, 39, 39, 40, 40, 40, 40, 40, 40, 40, 39, 40, 40, 39, 39, 40, 39, 38, 40, 39, 39, 39, 39, 39, 40, 39, 39, 40, 39, 40, 40, 39, 40, 39, 40, 40, 40, 39, 39, 39, 40, 39>} : (tensor<?x256x!quant.uniform<i32:f32:0, {… >>) -> tensor<?x256x!quant.uniform<i8:f32, 0.15714123845100403:12>>
    %15 = tosa.table %14, %3 : (tensor<?x256x!quant.uniform<i8:f32, 0.15714123845100403:12>>, tensor<256x!quant.uniform<i8:f32, 1.000000e+00>>) -> tensor<?x256x!quant.uniform<i8:f32, 0.071565493941307068:-126>>
    %16 = tosa.fully_connected %15, %2, %1 {quantization_info = #tosa.conv_quant<input_zp = -126, weight_zp = 0>} : (tensor<?x256x!quant.uniform<i8:f32, 0.071565493941307068:-126>>, tensor<256x256x!quant.uniform<i8<-127:127>:f32:0, {… >>, tensor<256x!quant.uniform<i32:f32:0, {… >>) -> tensor<?x256x!quant.uniform<i32:f32:0, {… >>
    %17 = tosa.rescale %16 {double_round = true, input_zp = 0 : i32, multiplier = array<i32: 1533981422, 1401344089, 1450719054, 1197018910, 1171581761, 2022634927, 1257200134, 1445266194, 1729908096, 1323096681, 1321827613, 2097425896, 1812469889, 1453832484, 2104161318, 2013747518, 1139809046, 1112414367, 1538206973, 1940382564, 1930551138, 1122956144, 1753450728, 1879478344, 1986204819, 1295731224, 1645161695, 1300282570, 1349499313, 1895136879, 2011195781, 1495033791, 1116673497, 1141207327, 1639880127, 1229908740, 1348644767, 1656128407, 1597891324, 1435352629, 1569565803, 1726723577, 1629461400, 1468802026, 1532998088, 1165990550, 1356687936, 1683975118, 1736800677, 1658585254, 1784443066, 1199797939, 1395760848, 1188383976, 1498522958, 1555816237, 1449138961, 1469978329, 1949982555, 1223480198, 1325357478, 1852693494, 1614115908, 1493753885, 2059283082, 1957351078, 1393815007, 1798496431, 1552715877, 1365935568, 1346725704, 1165256503, 1111476619, 1616885586, 1766652735, 1650936311, 1669176761, 1839055607, 1349154179, 1597932340, 1176878311, 1124095468, 1295153805, 1519971092, 1113201013, 2028013617, 2145960766, 1348884809, 1574217353, 1887698863, 1350893981, 1468285282, 2052511956, 1264662272, 1593365905, 1358274192, 2144152001, 1316578455, 1352907403, 1344940847, 1081276559, 1522966573, 1775330279, 2049407451, 1452016706, 1287720145, 1405452435, 2117561607, 1297690560, 1978288205, 1275736095, 1778531374, 1206645573, 1740516179, 1538346599, 2019666011, 1085481602, 1212538988, 1322947598, 1166528546, 1937485480, 1685121774, 1829221418, 2007576976, 2134483153, 1762873583, 1199495309, 1804583453, 1466701789, 1525736995, 1699305415, 1361715223, 1259890967, 2092160267, 2045055450, 1988208252, 1564611730, 1327986361, 1371850660, 1480170191, 1545105824, 1538342880, 1631545273, 1893640095, 1518706699, 1147119125, 1475367857, 1721730719, 1215479851, 1098486921, 1820181844, 1120140137, 1259123448, 1146754014, 1581135119, 2095232681, 2011221708, 1210379139, 1249270451, 2038700014, 1244893478, 1378884037, 1681774359, 1513919774, 1582978206, 1302279522, 1384823038, 1173889206, 1259995421, 1467579288, 1089391560, 1418268717, 1490420389, 1077213798, 1633718511, 1092999208, 1867364019, 1475545100, 1639654111, 1900781645, 1245522115, 1096254177, 1376449930, 1934968809, 1268134119, 2005132136, 1149085793, 1615651371, 1215123772, 1360916995, 1631836639, 1426332713, 1129341758, 1701913789, 2114619469, 1862255444, 1879423089, 1208788420, 1991261327, 1197121027, 1735511632, 1812564673, 1673458100, 1153718960, 1884890825, 1077006803, 1424250859, 1776183550, 1086705616, 1700805812, 1618776171, 1685173523, 1628411653, 1110704424, 1282910692, 1552440662, 1346292374, 1782218823, 1622238135, 1370232633, 1388490510, 1251952039, 1224214032, 1165974717, 1107595032, 1245707008, 1183968431, 1241001159, 1547522611, 1468709580, 1710449369, 1544049490, 2056144787, 1928581920, 1484444835, 1558420255, 1947885825, 1989453837, 1298145460, 1415417643, 1366529351, 1897590857, 1455430322, 1294852556, 2089257870, 1244078567, 1780456494, 1314457497, 1239472603, 1422977753, 1676100902, 1307788487, 1736950186, 1169137984, 1645227045, 1517980834>, output_zp = -7 : i32, per_channel = true, scale32 = true, shift = array<i8: 39, 39, 39, 40, 38, 40, 38, 40, 38, 39, 40, 38, 39, 39, 40, 40, 39, 38, 40, 40, 40, 38, 40, 39, 39, 39, 39, 40, 38, 40, 39, 39, 38, 39, 40, 40, 38, 39, 39, 39, 40, 40, 38, 38, 40, 39, 39, 39, 40, 40, 40, 39, 40, 40, 39, 38, 40, 39, 40, 39, 38, 39, 39, 38, 40, 40, 40, 39, 40, 40, 39, 40, 38, 40, 40, 39, 39, 40, 38, 40, 39, 40, 38, 40, 40, 40, 40, 39, 40, 39, 38, 40, 38, 38, 40, 40, 39, 38, 39, 40, 38, 40, 39, 40, 39, 38, 38, 39, 39, 40, 40, 39, 39, 40, 40, 38, 39, 39, 40, 40, 39, 39, 40, 40, 40, 40, 40, 39, 39, 39, 40, 38, 40, 40, 40, 39, 40, 40, 38, 39, 38, 40, 39, 40, 39, 39, 40, 38, 39, 40, 39, 39, 40, 40, 40, 40, 40, 38, 40, 40, 39, 40, 40, 38, 40, 39, 39, 39, 38, 38, 38, 38, 39, 39, 38, 39, 40, 40, 39, 40, 38, 39, 40, 39, 39, 39, 38, 40, 40, 38, 39, 39, 39, 40, 39, 39, 39, 38, 39, 39, 40, 40, 40, 38, 40, 38, 39, 39, 40, 39, 40, 40, 39, 39, 39, 40, 39, 39, 39, 40, 39, 38, 38, 39, 39, 38, 38, 40, 38, 40, 40, 40, 40, 38, 40, 40, 41, 39, 39, 39, 39, 40, 39, 39, 39, 39, 39, 39, 40, 40, 40, 39, 39, 39, 38, 40>} : (tensor<?x256x!quant.uniform<i32:f32:0, {… >>) -> tensor<?x256x!quant.uniform<i8:f32, 0.34482768177986145:-7>>
    %18 = tosa.table %17, %0 : (tensor<?x256x!quant.uniform<i8:f32, 0.34482768177986145:-7>>, tensor<256x!quant.uniform<i8:f32, 1.000000e+00>>) -> tensor<?x256x!quant.uniform<i8:f32, 7.812500e-03>>
    return %18 : tensor<?x256x!quant.uniform<i8:f32, 7.812500e-03>>
  }
}

